node {
  name: "data_loading/tensors/component_0"
  op: "Const"
  attr {
    key: "_output_shapes"
    value {
      list {
        shape {
          dim {
            size: 801
          }
        }
      }
    }
  }
  attr {
    key: "dtype"
    value {
      type: DT_STRING
    }
  }
  attr {
    key: "value"
    value {
      tensor {
        dtype: DT_STRING
        tensor_shape {
          dim {
            size: 801
          }
        }
        string_val: "./data/dvs_test/training/Run_1/images/frame_00000.png"
        string_val: "./data/dvs_test/training/Run_1/images/frame_00001.png"
        string_val: "./data/dvs_test/training/Run_1/images/frame_00002.png"
        string_val: "./data/dvs_test/training/Run_1/images/frame_00003.png"
        string_val: "./data/dvs_test/training/Run_1/images/frame_00004.png"
        string_val: "./data/dvs_test/training/Run_1/images/frame_00005.png"
        string_val: "./data/dvs_test/training/Run_1/images/frame_00006.png"
        string_val: "./data/dvs_test/training/Run_1/images/frame_00007.png"
        string_val: "./data/dvs_test/training/Run_1/images/frame_00008.png"
        string_val: "./data/dvs_test/training/Run_1/images/frame_00009.png"
        string_val: "./data/dvs_test/training/Run_1/images/frame_00010.png"
        string_val: "./data/dvs_test/training/Run_1/images/frame_00011.png"
        string_val: "./data/dvs_test/training/Run_1/images/frame_00012.png"
        string_val: "./data/dvs_test/training/Run_1/images/frame_00013.png"
        string_val: "./data/dvs_test/training/Run_1/images/frame_00014.png"
        string_val: "./data/dvs_test/training/Run_1/images/frame_00015.png"
        string_val: "./data/dvs_test/training/Run_1/images/frame_00016.png"
        string_val: "./data/dvs_test/training/Run_1/images/frame_00017.png"
        string_val: "./data/dvs_test/training/Run_1/images/frame_00018.png"
        string_val: "./data/dvs_test/training/Run_1/images/frame_00019.png"
        string_val: "./data/dvs_test/training/Run_1/images/frame_00020.png"
        string_val: "./data/dvs_test/training/Run_1/images/frame_00021.png"
        string_val: "./data/dvs_test/training/Run_1/images/frame_00022.png"
        string_val: "./data/dvs_test/training/Run_1/images/frame_00023.png"
        string_val: "./data/dvs_test/training/Run_1/images/frame_00024.png"
        string_val: "./data/dvs_test/training/Run_1/images/frame_00025.png"
        string_val: "./data/dvs_test/training/Run_1/images/frame_00026.png"
        string_val: "./data/dvs_test/training/Run_1/images/frame_00027.png"
        string_val: "./data/dvs_test/training/Run_1/images/frame_00028.png"
        string_val: "./data/dvs_test/training/Run_1/images/frame_00029.png"
        string_val: "./data/dvs_test/training/Run_1/images/frame_00030.png"
        string_val: "./data/dvs_test/training/Run_1/images/frame_00031.png"
        string_val: "./data/dvs_test/training/Run_1/images/frame_00032.png"
        string_val: "./data/dvs_test/training/Run_1/images/frame_00033.png"
        string_val: "./data/dvs_test/training/Run_1/images/frame_00034.png"
        string_val: "./data/dvs_test/training/Run_1/images/frame_00035.png"
        string_val: "./data/dvs_test/training/Run_1/images/frame_00036.png"
        string_val: "./data/dvs_test/training/Run_1/images/frame_00037.png"
        string_val: "./data/dvs_test/training/Run_1/images/frame_00038.png"
        string_val: "./data/dvs_test/training/Run_1/images/frame_00039.png"
        string_val: "./data/dvs_test/training/Run_1/images/frame_00040.png"
        string_val: "./data/dvs_test/training/Run_1/images/frame_00041.png"
        string_val: "./data/dvs_test/training/Run_1/images/frame_00042.png"
        string_val: "./data/dvs_test/training/Run_1/images/frame_00043.png"
        string_val: "./data/dvs_test/training/Run_1/images/frame_00044.png"
        string_val: "./data/dvs_test/training/Run_1/images/frame_00045.png"
        string_val: "./data/dvs_test/training/Run_1/images/frame_00046.png"
        string_val: "./data/dvs_test/training/Run_1/images/frame_00047.png"
        string_val: "./data/dvs_test/training/Run_1/images/frame_00048.png"
        string_val: "./data/dvs_test/training/Run_1/images/frame_00049.png"
        string_val: "./data/dvs_test/training/Run_1/images/frame_00050.png"
        string_val: "./data/dvs_test/training/Run_1/images/frame_00051.png"
        string_val: "./data/dvs_test/training/Run_1/images/frame_00052.png"
        string_val: "./data/dvs_test/training/Run_1/images/frame_00053.png"
        string_val: "./data/dvs_test/training/Run_1/images/frame_00054.png"
        string_val: "./data/dvs_test/training/Run_1/images/frame_00055.png"
        string_val: "./data/dvs_test/training/Run_1/images/frame_00056.png"
        string_val: "./data/dvs_test/training/Run_1/images/frame_00057.png"
        string_val: "./data/dvs_test/training/Run_1/images/frame_00058.png"
        string_val: "./data/dvs_test/training/Run_1/images/frame_00059.png"
        string_val: "./data/dvs_test/training/Run_1/images/frame_00060.png"
        string_val: "./data/dvs_test/training/Run_1/images/frame_00061.png"
        string_val: "./data/dvs_test/training/Run_1/images/frame_00062.png"
        string_val: "./data/dvs_test/training/Run_1/images/frame_00063.png"
        string_val: "./data/dvs_test/training/Run_1/images/frame_00064.png"
        string_val: "./data/dvs_test/training/Run_1/images/frame_00065.png"
        string_val: "./data/dvs_test/training/Run_1/images/frame_00066.png"
        string_val: "./data/dvs_test/training/Run_1/images/frame_00067.png"
        string_val: "./data/dvs_test/training/Run_1/images/frame_00068.png"
        string_val: "./data/dvs_test/training/Run_1/images/frame_00069.png"
        string_val: "./data/dvs_test/training/Run_1/images/frame_00070.png"
        string_val: "./data/dvs_test/training/Run_1/images/frame_00071.png"
        string_val: "./data/dvs_test/training/Run_1/images/frame_00072.png"
        string_val: "./data/dvs_test/training/Run_1/images/frame_00073.png"
        string_val: "./data/dvs_test/training/Run_1/images/frame_00074.png"
        string_val: "./data/dvs_test/training/Run_1/images/frame_00075.png"
        string_val: "./data/dvs_test/training/Run_1/images/frame_00076.png"
        string_val: "./data/dvs_test/training/Run_1/images/frame_00077.png"
        string_val: "./data/dvs_test/training/Run_1/images/frame_00078.png"
        string_val: "./data/dvs_test/training/Run_1/images/frame_00079.png"
        string_val: "./data/dvs_test/training/Run_1/images/frame_00080.png"
        string_val: "./data/dvs_test/training/Run_1/images/frame_00081.png"
        string_val: "./data/dvs_test/training/Run_1/images/frame_00082.png"
        string_val: "./data/dvs_test/training/Run_1/images/frame_00083.png"
        string_val: "./data/dvs_test/training/Run_1/images/frame_00084.png"
        string_val: "./data/dvs_test/training/Run_1/images/frame_00085.png"
        string_val: "./data/dvs_test/training/Run_1/images/frame_00086.png"
        string_val: "./data/dvs_test/training/Run_1/images/frame_00087.png"
        string_val: "./data/dvs_test/training/Run_1/images/frame_00088.png"
        string_val: "./data/dvs_test/training/Run_1/images/frame_00089.png"
        string_val: "./data/dvs_test/training/Run_1/images/frame_00090.png"
        string_val: "./data/dvs_test/training/Run_1/images/frame_00091.png"
        string_val: "./data/dvs_test/training/Run_1/images/frame_00092.png"
        string_val: "./data/dvs_test/training/Run_1/images/frame_00093.png"
        string_val: "./data/dvs_test/training/Run_1/images/frame_00094.png"
        string_val: "./data/dvs_test/training/Run_1/images/frame_00095.png"
        string_val: "./data/dvs_test/training/Run_1/images/frame_00096.png"
        string_val: "./data/dvs_test/training/Run_1/images/frame_00097.png"
        string_val: "./data/dvs_test/training/Run_1/images/frame_00098.png"
        string_val: "./data/dvs_test/training/Run_1/images/frame_00099.png"
        string_val: "./data/dvs_test/training/Run_1/images/frame_00100.png"
        string_val: "./data/dvs_test/training/Run_1/images/frame_00101.png"
        string_val: "./data/dvs_test/training/Run_1/images/frame_00102.png"
        string_val: "./data/dvs_test/training/Run_1/images/frame_00103.png"
        string_val: "./data/dvs_test/training/Run_1/images/frame_00104.png"
        string_val: "./data/dvs_test/training/Run_1/images/frame_00105.png"
        string_val: "./data/dvs_test/training/Run_1/images/frame_00106.png"
        string_val: "./data/dvs_test/training/Run_1/images/frame_00107.png"
        string_val: "./data/dvs_test/training/Run_1/images/frame_00108.png"
        string_val: "./data/dvs_test/training/Run_1/images/frame_00109.png"
        string_val: "./data/dvs_test/training/Run_1/images/frame_00110.png"
        string_val: "./data/dvs_test/training/Run_1/images/frame_00111.png"
        string_val: "./data/dvs_test/training/Run_1/images/frame_00112.png"
        string_val: "./data/dvs_test/training/Run_1/images/frame_00113.png"
        string_val: "./data/dvs_test/training/Run_1/images/frame_00114.png"
        string_val: "./data/dvs_test/training/Run_1/images/frame_00115.png"
        string_val: "./data/dvs_test/training/Run_1/images/frame_00116.png"
        string_val: "./data/dvs_test/training/Run_1/images/frame_00117.png"
        string_val: "./data/dvs_test/training/Run_1/images/frame_00118.png"
        string_val: "./data/dvs_test/training/Run_1/images/frame_00119.png"
        string_val: "./data/dvs_test/training/Run_1/images/frame_00120.png"
        string_val: "./data/dvs_test/training/Run_1/images/frame_00121.png"
        string_val: "./data/dvs_test/training/Run_1/images/frame_00122.png"
        string_val: "./data/dvs_test/training/Run_1/images/frame_00123.png"
        string_val: "./data/dvs_test/training/Run_1/images/frame_00124.png"
        string_val: "./data/dvs_test/training/Run_1/images/frame_00125.png"
        string_val: "./data/dvs_test/training/Run_1/images/frame_00126.png"
        string_val: "./data/dvs_test/training/Run_1/images/frame_00127.png"
        string_val: "./data/dvs_test/training/Run_1/images/frame_00128.png"
        string_val: "./data/dvs_test/training/Run_1/images/frame_00129.png"
        string_val: "./data/dvs_test/training/Run_1/images/frame_00130.png"
        string_val: "./data/dvs_test/training/Run_1/images/frame_00131.png"
        string_val: "./data/dvs_test/training/Run_1/images/frame_00132.png"
        string_val: "./data/dvs_test/training/Run_1/images/frame_00133.png"
        string_val: "./data/dvs_test/training/Run_1/images/frame_00134.png"
        string_val: "./data/dvs_test/training/Run_1/images/frame_00135.png"
        string_val: "./data/dvs_test/training/Run_1/images/frame_00136.png"
        string_val: "./data/dvs_test/training/Run_1/images/frame_00137.png"
        string_val: "./data/dvs_test/training/Run_1/images/frame_00138.png"
        string_val: "./data/dvs_test/training/Run_1/images/frame_00139.png"
        string_val: "./data/dvs_test/training/Run_1/images/frame_00140.png"
        string_val: "./data/dvs_test/training/Run_1/images/frame_00141.png"
        string_val: "./data/dvs_test/training/Run_1/images/frame_00142.png"
        string_val: "./data/dvs_test/training/Run_1/images/frame_00143.png"
        string_val: "./data/dvs_test/training/Run_1/images/frame_00144.png"
        string_val: "./data/dvs_test/training/Run_1/images/frame_00145.png"
        string_val: "./data/dvs_test/training/Run_1/images/frame_00146.png"
        string_val: "./data/dvs_test/training/Run_1/images/frame_00147.png"
        string_val: "./data/dvs_test/training/Run_1/images/frame_00148.png"
        string_val: "./data/dvs_test/training/Run_1/images/frame_00149.png"
        string_val: "./data/dvs_test/training/Run_1/images/frame_00150.png"
        string_val: "./data/dvs_test/training/Run_1/images/frame_00151.png"
        string_val: "./data/dvs_test/training/Run_1/images/frame_00152.png"
        string_val: "./data/dvs_test/training/Run_1/images/frame_00153.png"
        string_val: "./data/dvs_test/training/Run_1/images/frame_00154.png"
        string_val: "./data/dvs_test/training/Run_1/images/frame_00155.png"
        string_val: "./data/dvs_test/training/Run_1/images/frame_00156.png"
        string_val: "./data/dvs_test/training/Run_1/images/frame_00157.png"
        string_val: "./data/dvs_test/training/Run_1/images/frame_00158.png"
        string_val: "./data/dvs_test/training/Run_1/images/frame_00159.png"
        string_val: "./data/dvs_test/training/Run_1/images/frame_00160.png"
        string_val: "./data/dvs_test/training/Run_1/images/frame_00161.png"
        string_val: "./data/dvs_test/training/Run_1/images/frame_00162.png"
        string_val: "./data/dvs_test/training/Run_1/images/frame_00163.png"
        string_val: "./data/dvs_test/training/Run_1/images/frame_00164.png"
        string_val: "./data/dvs_test/training/Run_1/images/frame_00165.png"
        string_val: "./data/dvs_test/training/Run_1/images/frame_00166.png"
        string_val: "./data/dvs_test/training/Run_1/images/frame_00167.png"
        string_val: "./data/dvs_test/training/Run_1/images/frame_00168.png"
        string_val: "./data/dvs_test/training/Run_1/images/frame_00169.png"
        string_val: "./data/dvs_test/training/Run_1/images/frame_00170.png"
        string_val: "./data/dvs_test/training/Run_1/images/frame_00171.png"
        string_val: "./data/dvs_test/training/Run_1/images/frame_00172.png"
        string_val: "./data/dvs_test/training/Run_1/images/frame_00173.png"
        string_val: "./data/dvs_test/training/Run_1/images/frame_00174.png"
        string_val: "./data/dvs_test/training/Run_1/images/frame_00175.png"
        string_val: "./data/dvs_test/training/Run_1/images/frame_00176.png"
        string_val: "./data/dvs_test/training/Run_1/images/frame_00177.png"
        string_val: "./data/dvs_test/training/Run_1/images/frame_00178.png"
        string_val: "./data/dvs_test/training/Run_1/images/frame_00179.png"
        string_val: "./data/dvs_test/training/Run_1/images/frame_00180.png"
        string_val: "./data/dvs_test/training/Run_1/images/frame_00181.png"
        string_val: "./data/dvs_test/training/Run_1/images/frame_00182.png"
        string_val: "./data/dvs_test/training/Run_1/images/frame_00183.png"
        string_val: "./data/dvs_test/training/Run_1/images/frame_00184.png"
        string_val: "./data/dvs_test/training/Run_1/images/frame_00185.png"
        string_val: "./data/dvs_test/training/Run_1/images/frame_00186.png"
        string_val: "./data/dvs_test/training/Run_1/images/frame_00187.png"
        string_val: "./data/dvs_test/training/Run_1/images/frame_00188.png"
        string_val: "./data/dvs_test/training/Run_1/images/frame_00189.png"
        string_val: "./data/dvs_test/training/Run_1/images/frame_00190.png"
        string_val: "./data/dvs_test/training/Run_1/images/frame_00191.png"
        string_val: "./data/dvs_test/training/Run_1/images/frame_00192.png"
        string_val: "./data/dvs_test/training/Run_1/images/frame_00193.png"
        string_val: "./data/dvs_test/training/Run_1/images/frame_00194.png"
        string_val: "./data/dvs_test/training/Run_1/images/frame_00195.png"
        string_val: "./data/dvs_test/training/Run_1/images/frame_00196.png"
        string_val: "./data/dvs_test/training/Run_1/images/frame_00197.png"
        string_val: "./data/dvs_test/training/Run_1/images/frame_00198.png"
        string_val: "./data/dvs_test/training/Run_1/images/frame_00199.png"
        string_val: "./data/dvs_test/training/Run_1/images/frame_00200.png"
        string_val: "./data/dvs_test/training/Run_1/images/frame_00201.png"
        string_val: "./data/dvs_test/training/Run_1/images/frame_00202.png"
        string_val: "./data/dvs_test/training/Run_1/images/frame_00203.png"
        string_val: "./data/dvs_test/training/Run_1/images/frame_00204.png"
        string_val: "./data/dvs_test/training/Run_1/images/frame_00205.png"
        string_val: "./data/dvs_test/training/Run_1/images/frame_00206.png"
        string_val: "./data/dvs_test/training/Run_1/images/frame_00207.png"
        string_val: "./data/dvs_test/training/Run_1/images/frame_00208.png"
        string_val: "./data/dvs_test/training/Run_1/images/frame_00209.png"
        string_val: "./data/dvs_test/training/Run_1/images/frame_00210.png"
        string_val: "./data/dvs_test/training/Run_1/images/frame_00211.png"
        string_val: "./data/dvs_test/training/Run_1/images/frame_00212.png"
        string_val: "./data/dvs_test/training/Run_1/images/frame_00213.png"
        string_val: "./data/dvs_test/training/Run_1/images/frame_00214.png"
        string_val: "./data/dvs_test/training/Run_1/images/frame_00215.png"
        string_val: "./data/dvs_test/training/Run_1/images/frame_00216.png"
        string_val: "./data/dvs_test/training/Run_1/images/frame_00217.png"
        string_val: "./data/dvs_test/training/Run_1/images/frame_00218.png"
        string_val: "./data/dvs_test/training/Run_1/images/frame_00219.png"
        string_val: "./data/dvs_test/training/Run_1/images/frame_00220.png"
        string_val: "./data/dvs_test/training/Run_1/images/frame_00221.png"
        string_val: "./data/dvs_test/training/Run_1/images/frame_00222.png"
        string_val: "./data/dvs_test/training/Run_1/images/frame_00223.png"
        string_val: "./data/dvs_test/training/Run_1/images/frame_00224.png"
        string_val: "./data/dvs_test/training/Run_1/images/frame_00225.png"
        string_val: "./data/dvs_test/training/Run_1/images/frame_00226.png"
        string_val: "./data/dvs_test/training/Run_1/images/frame_00227.png"
        string_val: "./data/dvs_test/training/Run_1/images/frame_00228.png"
        string_val: "./data/dvs_test/training/Run_1/images/frame_00229.png"
        string_val: "./data/dvs_test/training/Run_1/images/frame_00230.png"
        string_val: "./data/dvs_test/training/Run_1/images/frame_00231.png"
        string_val: "./data/dvs_test/training/Run_1/images/frame_00232.png"
        string_val: "./data/dvs_test/training/Run_1/images/frame_00233.png"
        string_val: "./data/dvs_test/training/Run_1/images/frame_00234.png"
        string_val: "./data/dvs_test/training/Run_1/images/frame_00235.png"
        string_val: "./data/dvs_test/training/Run_1/images/frame_00236.png"
        string_val: "./data/dvs_test/training/Run_1/images/frame_00237.png"
        string_val: "./data/dvs_test/training/Run_1/images/frame_00238.png"
        string_val: "./data/dvs_test/training/Run_1/images/frame_00239.png"
        string_val: "./data/dvs_test/training/Run_1/images/frame_00240.png"
        string_val: "./data/dvs_test/training/Run_1/images/frame_00241.png"
        string_val: "./data/dvs_test/training/Run_1/images/frame_00242.png"
        string_val: "./data/dvs_test/training/Run_1/images/frame_00243.png"
        string_val: "./data/dvs_test/training/Run_1/images/frame_00244.png"
        string_val: "./data/dvs_test/training/Run_1/images/frame_00245.png"
        string_val: "./data/dvs_test/training/Run_1/images/frame_00246.png"
        string_val: "./data/dvs_test/training/Run_1/images/frame_00247.png"
        string_val: "./data/dvs_test/training/Run_1/images/frame_00248.png"
        string_val: "./data/dvs_test/training/Run_1/images/frame_00249.png"
        string_val: "./data/dvs_test/training/Run_1/images/frame_00250.png"
        string_val: "./data/dvs_test/training/Run_1/images/frame_00251.png"
        string_val: "./data/dvs_test/training/Run_1/images/frame_00252.png"
        string_val: "./data/dvs_test/training/Run_1/images/frame_00253.png"
        string_val: "./data/dvs_test/training/Run_1/images/frame_00254.png"
        string_val: "./data/dvs_test/training/Run_1/images/frame_00255.png"
        string_val: "./data/dvs_test/training/Run_1/images/frame_00256.png"
        string_val: "./data/dvs_test/training/Run_1/images/frame_00257.png"
        string_val: "./data/dvs_test/training/Run_1/images/frame_00258.png"
        string_val: "./data/dvs_test/training/Run_1/images/frame_00259.png"
        string_val: "./data/dvs_test/training/Run_1/images/frame_00260.png"
        string_val: "./data/dvs_test/training/Run_1/images/frame_00261.png"
        string_val: "./data/dvs_test/training/Run_1/images/frame_00262.png"
        string_val: "./data/dvs_test/training/Run_1/images/frame_00263.png"
        string_val: "./data/dvs_test/training/Run_1/images/frame_00264.png"
        string_val: "./data/dvs_test/training/Run_1/images/frame_00265.png"
        string_val: "./data/dvs_test/training/Run_1/images/frame_00266.png"
        string_val: "./data/dvs_test/training/Run_1/images/frame_00267.png"
        string_val: "./data/dvs_test/training/Run_1/images/frame_00268.png"
        string_val: "./data/dvs_test/training/Run_1/images/frame_00269.png"
        string_val: "./data/dvs_test/training/Run_1/images/frame_00270.png"
        string_val: "./data/dvs_test/training/Run_1/images/frame_00271.png"
        string_val: "./data/dvs_test/training/Run_1/images/frame_00272.png"
        string_val: "./data/dvs_test/training/Run_1/images/frame_00273.png"
        string_val: "./data/dvs_test/training/Run_1/images/frame_00274.png"
        string_val: "./data/dvs_test/training/Run_1/images/frame_00275.png"
        string_val: "./data/dvs_test/training/Run_1/images/frame_00276.png"
        string_val: "./data/dvs_test/training/Run_1/images/frame_00277.png"
        string_val: "./data/dvs_test/training/Run_1/images/frame_00278.png"
        string_val: "./data/dvs_test/training/Run_1/images/frame_00279.png"
        string_val: "./data/dvs_test/training/Run_1/images/frame_00280.png"
        string_val: "./data/dvs_test/training/Run_1/images/frame_00281.png"
        string_val: "./data/dvs_test/training/Run_1/images/frame_00282.png"
        string_val: "./data/dvs_test/training/Run_1/images/frame_00283.png"
        string_val: "./data/dvs_test/training/Run_1/images/frame_00284.png"
        string_val: "./data/dvs_test/training/Run_1/images/frame_00285.png"
        string_val: "./data/dvs_test/training/Run_1/images/frame_00286.png"
        string_val: "./data/dvs_test/training/Run_1/images/frame_00287.png"
        string_val: "./data/dvs_test/training/Run_1/images/frame_00288.png"
        string_val: "./data/dvs_test/training/Run_1/images/frame_00289.png"
        string_val: "./data/dvs_test/training/Run_1/images/frame_00290.png"
        string_val: "./data/dvs_test/training/Run_1/images/frame_00291.png"
        string_val: "./data/dvs_test/training/Run_1/images/frame_00292.png"
        string_val: "./data/dvs_test/training/Run_1/images/frame_00293.png"
        string_val: "./data/dvs_test/training/Run_1/images/frame_00294.png"
        string_val: "./data/dvs_test/training/Run_1/images/frame_00295.png"
        string_val: "./data/dvs_test/training/Run_1/images/frame_00296.png"
        string_val: "./data/dvs_test/training/Run_1/images/frame_00297.png"
        string_val: "./data/dvs_test/training/Run_1/images/frame_00298.png"
        string_val: "./data/dvs_test/training/Run_1/images/frame_00299.png"
        string_val: "./data/dvs_test/training/Run_1/images/frame_00300.png"
        string_val: "./data/dvs_test/training/Run_1/images/frame_00301.png"
        string_val: "./data/dvs_test/training/Run_1/images/frame_00302.png"
        string_val: "./data/dvs_test/training/Run_1/images/frame_00303.png"
        string_val: "./data/dvs_test/training/Run_1/images/frame_00304.png"
        string_val: "./data/dvs_test/training/Run_1/images/frame_00305.png"
        string_val: "./data/dvs_test/training/Run_1/images/frame_00306.png"
        string_val: "./data/dvs_test/training/Run_1/images/frame_00307.png"
        string_val: "./data/dvs_test/training/Run_1/images/frame_00308.png"
        string_val: "./data/dvs_test/training/Run_1/images/frame_00309.png"
        string_val: "./data/dvs_test/training/Run_1/images/frame_00310.png"
        string_val: "./data/dvs_test/training/Run_1/images/frame_00311.png"
        string_val: "./data/dvs_test/training/Run_1/images/frame_00312.png"
        string_val: "./data/dvs_test/training/Run_1/images/frame_00313.png"
        string_val: "./data/dvs_test/training/Run_1/images/frame_00314.png"
        string_val: "./data/dvs_test/training/Run_1/images/frame_00315.png"
        string_val: "./data/dvs_test/training/Run_1/images/frame_00316.png"
        string_val: "./data/dvs_test/training/Run_1/images/frame_00317.png"
        string_val: "./data/dvs_test/training/Run_1/images/frame_00318.png"
        string_val: "./data/dvs_test/training/Run_1/images/frame_00319.png"
        string_val: "./data/dvs_test/training/Run_1/images/frame_00320.png"
        string_val: "./data/dvs_test/training/Run_1/images/frame_00321.png"
        string_val: "./data/dvs_test/training/Run_1/images/frame_00322.png"
        string_val: "./data/dvs_test/training/Run_1/images/frame_00323.png"
        string_val: "./data/dvs_test/training/Run_1/images/frame_00324.png"
        string_val: "./data/dvs_test/training/Run_1/images/frame_00325.png"
        string_val: "./data/dvs_test/training/Run_1/images/frame_00326.png"
        string_val: "./data/dvs_test/training/Run_1/images/frame_00327.png"
        string_val: "./data/dvs_test/training/Run_1/images/frame_00328.png"
        string_val: "./data/dvs_test/training/Run_1/images/frame_00329.png"
        string_val: "./data/dvs_test/training/Run_1/images/frame_00330.png"
        string_val: "./data/dvs_test/training/Run_1/images/frame_00331.png"
        string_val: "./data/dvs_test/training/Run_1/images/frame_00332.png"
        string_val: "./data/dvs_test/training/Run_1/images/frame_00333.png"
        string_val: "./data/dvs_test/training/Run_1/images/frame_00334.png"
        string_val: "./data/dvs_test/training/Run_1/images/frame_00335.png"
        string_val: "./data/dvs_test/training/Run_1/images/frame_00336.png"
        string_val: "./data/dvs_test/training/Run_1/images/frame_00337.png"
        string_val: "./data/dvs_test/training/Run_1/images/frame_00338.png"
        string_val: "./data/dvs_test/training/Run_1/images/frame_00339.png"
        string_val: "./data/dvs_test/training/Run_1/images/frame_00340.png"
        string_val: "./data/dvs_test/training/Run_1/images/frame_00341.png"
        string_val: "./data/dvs_test/training/Run_1/images/frame_00342.png"
        string_val: "./data/dvs_test/training/Run_1/images/frame_00343.png"
        string_val: "./data/dvs_test/training/Run_1/images/frame_00344.png"
        string_val: "./data/dvs_test/training/Run_1/images/frame_00345.png"
        string_val: "./data/dvs_test/training/Run_1/images/frame_00346.png"
        string_val: "./data/dvs_test/training/Run_1/images/frame_00347.png"
        string_val: "./data/dvs_test/training/Run_1/images/frame_00348.png"
        string_val: "./data/dvs_test/training/Run_1/images/frame_00349.png"
        string_val: "./data/dvs_test/training/Run_1/images/frame_00350.png"
        string_val: "./data/dvs_test/training/Run_1/images/frame_00351.png"
        string_val: "./data/dvs_test/training/Run_1/images/frame_00352.png"
        string_val: "./data/dvs_test/training/Run_1/images/frame_00353.png"
        string_val: "./data/dvs_test/training/Run_1/images/frame_00354.png"
        string_val: "./data/dvs_test/training/Run_1/images/frame_00355.png"
        string_val: "./data/dvs_test/training/Run_1/images/frame_00356.png"
        string_val: "./data/dvs_test/training/Run_1/images/frame_00357.png"
        string_val: "./data/dvs_test/training/Run_1/images/frame_00358.png"
        string_val: "./data/dvs_test/training/Run_1/images/frame_00359.png"
        string_val: "./data/dvs_test/training/Run_1/images/frame_00360.png"
        string_val: "./data/dvs_test/training/Run_1/images/frame_00361.png"
        string_val: "./data/dvs_test/training/Run_1/images/frame_00362.png"
        string_val: "./data/dvs_test/training/Run_1/images/frame_00363.png"
        string_val: "./data/dvs_test/training/Run_1/images/frame_00364.png"
        string_val: "./data/dvs_test/training/Run_1/images/frame_00365.png"
        string_val: "./data/dvs_test/training/Run_1/images/frame_00366.png"
        string_val: "./data/dvs_test/training/Run_1/images/frame_00367.png"
        string_val: "./data/dvs_test/training/Run_1/images/frame_00368.png"
        string_val: "./data/dvs_test/training/Run_1/images/frame_00369.png"
        string_val: "./data/dvs_test/training/Run_1/images/frame_00370.png"
        string_val: "./data/dvs_test/training/Run_1/images/frame_00371.png"
        string_val: "./data/dvs_test/training/Run_1/images/frame_00372.png"
        string_val: "./data/dvs_test/training/Run_1/images/frame_00373.png"
        string_val: "./data/dvs_test/training/Run_1/images/frame_00374.png"
        string_val: "./data/dvs_test/training/Run_1/images/frame_00375.png"
        string_val: "./data/dvs_test/training/Run_1/images/frame_00376.png"
        string_val: "./data/dvs_test/training/Run_1/images/frame_00377.png"
        string_val: "./data/dvs_test/training/Run_1/images/frame_00378.png"
        string_val: "./data/dvs_test/training/Run_1/images/frame_00379.png"
        string_val: "./data/dvs_test/training/Run_1/images/frame_00380.png"
        string_val: "./data/dvs_test/training/Run_1/images/frame_00381.png"
        string_val: "./data/dvs_test/training/Run_1/images/frame_00382.png"
        string_val: "./data/dvs_test/training/Run_1/images/frame_00383.png"
        string_val: "./data/dvs_test/training/Run_1/images/frame_00384.png"
        string_val: "./data/dvs_test/training/Run_1/images/frame_00385.png"
        string_val: "./data/dvs_test/training/Run_1/images/frame_00386.png"
        string_val: "./data/dvs_test/training/Run_1/images/frame_00387.png"
        string_val: "./data/dvs_test/training/Run_1/images/frame_00388.png"
        string_val: "./data/dvs_test/training/Run_1/images/frame_00389.png"
        string_val: "./data/dvs_test/training/Run_1/images/frame_00390.png"
        string_val: "./data/dvs_test/training/Run_1/images/frame_00391.png"
        string_val: "./data/dvs_test/training/Run_1/images/frame_00392.png"
        string_val: "./data/dvs_test/training/Run_1/images/frame_00393.png"
        string_val: "./data/dvs_test/training/Run_1/images/frame_00394.png"
        string_val: "./data/dvs_test/training/Run_1/images/frame_00395.png"
        string_val: "./data/dvs_test/training/Run_1/images/frame_00396.png"
        string_val: "./data/dvs_test/training/Run_1/images/frame_00397.png"
        string_val: "./data/dvs_test/training/Run_1/images/frame_00398.png"
        string_val: "./data/dvs_test/training/Run_1/images/frame_00399.png"
        string_val: "./data/dvs_test/training/Run_1/images/frame_00400.png"
        string_val: "./data/dvs_test/training/Run_1/images/frame_00401.png"
        string_val: "./data/dvs_test/training/Run_1/images/frame_00402.png"
        string_val: "./data/dvs_test/training/Run_1/images/frame_00403.png"
        string_val: "./data/dvs_test/training/Run_1/images/frame_00404.png"
        string_val: "./data/dvs_test/training/Run_1/images/frame_00405.png"
        string_val: "./data/dvs_test/training/Run_1/images/frame_00406.png"
        string_val: "./data/dvs_test/training/Run_1/images/frame_00407.png"
        string_val: "./data/dvs_test/training/Run_1/images/frame_00408.png"
        string_val: "./data/dvs_test/training/Run_1/images/frame_00409.png"
        string_val: "./data/dvs_test/training/Run_1/images/frame_00410.png"
        string_val: "./data/dvs_test/training/Run_1/images/frame_00411.png"
        string_val: "./data/dvs_test/training/Run_1/images/frame_00412.png"
        string_val: "./data/dvs_test/training/Run_1/images/frame_00413.png"
        string_val: "./data/dvs_test/training/Run_1/images/frame_00414.png"
        string_val: "./data/dvs_test/training/Run_1/images/frame_00415.png"
        string_val: "./data/dvs_test/training/Run_1/images/frame_00416.png"
        string_val: "./data/dvs_test/training/Run_1/images/frame_00417.png"
        string_val: "./data/dvs_test/training/Run_1/images/frame_00418.png"
        string_val: "./data/dvs_test/training/Run_1/images/frame_00419.png"
        string_val: "./data/dvs_test/training/Run_1/images/frame_00420.png"
        string_val: "./data/dvs_test/training/Run_1/images/frame_00421.png"
        string_val: "./data/dvs_test/training/Run_1/images/frame_00422.png"
        string_val: "./data/dvs_test/training/Run_1/images/frame_00423.png"
        string_val: "./data/dvs_test/training/Run_1/images/frame_00424.png"
        string_val: "./data/dvs_test/training/Run_1/images/frame_00425.png"
        string_val: "./data/dvs_test/training/Run_1/images/frame_00426.png"
        string_val: "./data/dvs_test/training/Run_1/images/frame_00427.png"
        string_val: "./data/dvs_test/training/Run_1/images/frame_00428.png"
        string_val: "./data/dvs_test/training/Run_1/images/frame_00429.png"
        string_val: "./data/dvs_test/training/Run_1/images/frame_00430.png"
        string_val: "./data/dvs_test/training/Run_1/images/frame_00431.png"
        string_val: "./data/dvs_test/training/Run_1/images/frame_00432.png"
        string_val: "./data/dvs_test/training/Run_1/images/frame_00433.png"
        string_val: "./data/dvs_test/training/Run_1/images/frame_00434.png"
        string_val: "./data/dvs_test/training/Run_1/images/frame_00435.png"
        string_val: "./data/dvs_test/training/Run_1/images/frame_00436.png"
        string_val: "./data/dvs_test/training/Run_1/images/frame_00437.png"
        string_val: "./data/dvs_test/training/Run_1/images/frame_00438.png"
        string_val: "./data/dvs_test/training/Run_1/images/frame_00439.png"
        string_val: "./data/dvs_test/training/Run_1/images/frame_00440.png"
        string_val: "./data/dvs_test/training/Run_1/images/frame_00441.png"
        string_val: "./data/dvs_test/training/Run_1/images/frame_00442.png"
        string_val: "./data/dvs_test/training/Run_1/images/frame_00443.png"
        string_val: "./data/dvs_test/training/Run_1/images/frame_00444.png"
        string_val: "./data/dvs_test/training/Run_1/images/frame_00445.png"
        string_val: "./data/dvs_test/training/Run_1/images/frame_00446.png"
        string_val: "./data/dvs_test/training/Run_1/images/frame_00447.png"
        string_val: "./data/dvs_test/training/Run_1/images/frame_00448.png"
        string_val: "./data/dvs_test/training/Run_1/images/frame_00449.png"
        string_val: "./data/dvs_test/training/Run_1/images/frame_00450.png"
        string_val: "./data/dvs_test/training/Run_1/images/frame_00451.png"
        string_val: "./data/dvs_test/training/Run_1/images/frame_00452.png"
        string_val: "./data/dvs_test/training/Run_1/images/frame_00453.png"
        string_val: "./data/dvs_test/training/Run_1/images/frame_00454.png"
        string_val: "./data/dvs_test/training/Run_1/images/frame_00455.png"
        string_val: "./data/dvs_test/training/Run_1/images/frame_00456.png"
        string_val: "./data/dvs_test/training/Run_1/images/frame_00457.png"
        string_val: "./data/dvs_test/training/Run_1/images/frame_00458.png"
        string_val: "./data/dvs_test/training/Run_1/images/frame_00459.png"
        string_val: "./data/dvs_test/training/Run_1/images/frame_00460.png"
        string_val: "./data/dvs_test/training/Run_1/images/frame_00461.png"
        string_val: "./data/dvs_test/training/Run_1/images/frame_00462.png"
        string_val: "./data/dvs_test/training/Run_1/images/frame_00463.png"
        string_val: "./data/dvs_test/training/Run_1/images/frame_00464.png"
        string_val: "./data/dvs_test/training/Run_1/images/frame_00465.png"
        string_val: "./data/dvs_test/training/Run_1/images/frame_00466.png"
        string_val: "./data/dvs_test/training/Run_1/images/frame_00467.png"
        string_val: "./data/dvs_test/training/Run_1/images/frame_00468.png"
        string_val: "./data/dvs_test/training/Run_1/images/frame_00469.png"
        string_val: "./data/dvs_test/training/Run_1/images/frame_00470.png"
        string_val: "./data/dvs_test/training/Run_1/images/frame_00471.png"
        string_val: "./data/dvs_test/training/Run_1/images/frame_00472.png"
        string_val: "./data/dvs_test/training/Run_1/images/frame_00473.png"
        string_val: "./data/dvs_test/training/Run_1/images/frame_00474.png"
        string_val: "./data/dvs_test/training/Run_1/images/frame_00475.png"
        string_val: "./data/dvs_test/training/Run_1/images/frame_00476.png"
        string_val: "./data/dvs_test/training/Run_1/images/frame_00477.png"
        string_val: "./data/dvs_test/training/Run_1/images/frame_00478.png"
        string_val: "./data/dvs_test/training/Run_1/images/frame_00479.png"
        string_val: "./data/dvs_test/training/Run_1/images/frame_00480.png"
        string_val: "./data/dvs_test/training/Run_1/images/frame_00481.png"
        string_val: "./data/dvs_test/training/Run_1/images/frame_00482.png"
        string_val: "./data/dvs_test/training/Run_1/images/frame_00483.png"
        string_val: "./data/dvs_test/training/Run_1/images/frame_00484.png"
        string_val: "./data/dvs_test/training/Run_1/images/frame_00485.png"
        string_val: "./data/dvs_test/training/Run_1/images/frame_00486.png"
        string_val: "./data/dvs_test/training/Run_1/images/frame_00487.png"
        string_val: "./data/dvs_test/training/Run_1/images/frame_00488.png"
        string_val: "./data/dvs_test/training/Run_1/images/frame_00489.png"
        string_val: "./data/dvs_test/training/Run_1/images/frame_00490.png"
        string_val: "./data/dvs_test/training/Run_1/images/frame_00491.png"
        string_val: "./data/dvs_test/training/Run_1/images/frame_00492.png"
        string_val: "./data/dvs_test/training/Run_1/images/frame_00493.png"
        string_val: "./data/dvs_test/training/Run_1/images/frame_00494.png"
        string_val: "./data/dvs_test/training/Run_1/images/frame_00495.png"
        string_val: "./data/dvs_test/training/Run_1/images/frame_00496.png"
        string_val: "./data/dvs_test/training/Run_1/images/frame_00497.png"
        string_val: "./data/dvs_test/training/Run_1/images/frame_00498.png"
        string_val: "./data/dvs_test/training/Run_1/images/frame_00499.png"
        string_val: "./data/dvs_test/training/Run_1/images/frame_00500.png"
        string_val: "./data/dvs_test/training/Run_1/images/frame_00501.png"
        string_val: "./data/dvs_test/training/Run_1/images/frame_00502.png"
        string_val: "./data/dvs_test/training/Run_1/images/frame_00503.png"
        string_val: "./data/dvs_test/training/Run_1/images/frame_00504.png"
        string_val: "./data/dvs_test/training/Run_1/images/frame_00505.png"
        string_val: "./data/dvs_test/training/Run_1/images/frame_00506.png"
        string_val: "./data/dvs_test/training/Run_1/images/frame_00507.png"
        string_val: "./data/dvs_test/training/Run_1/images/frame_00508.png"
        string_val: "./data/dvs_test/training/Run_1/images/frame_00509.png"
        string_val: "./data/dvs_test/training/Run_1/images/frame_00510.png"
        string_val: "./data/dvs_test/training/Run_1/images/frame_00511.png"
        string_val: "./data/dvs_test/training/Run_1/images/frame_00512.png"
        string_val: "./data/dvs_test/training/Run_1/images/frame_00513.png"
        string_val: "./data/dvs_test/training/Run_1/images/frame_00514.png"
        string_val: "./data/dvs_test/training/Run_1/images/frame_00515.png"
        string_val: "./data/dvs_test/training/Run_1/images/frame_00516.png"
        string_val: "./data/dvs_test/training/Run_1/images/frame_00517.png"
        string_val: "./data/dvs_test/training/Run_1/images/frame_00518.png"
        string_val: "./data/dvs_test/training/Run_1/images/frame_00519.png"
        string_val: "./data/dvs_test/training/Run_1/images/frame_00520.png"
        string_val: "./data/dvs_test/training/Run_1/images/frame_00521.png"
        string_val: "./data/dvs_test/training/Run_1/images/frame_00522.png"
        string_val: "./data/dvs_test/training/Run_1/images/frame_00523.png"
        string_val: "./data/dvs_test/training/Run_1/images/frame_00524.png"
        string_val: "./data/dvs_test/training/Run_1/images/frame_00525.png"
        string_val: "./data/dvs_test/training/Run_1/images/frame_00526.png"
        string_val: "./data/dvs_test/training/Run_1/images/frame_00527.png"
        string_val: "./data/dvs_test/training/Run_1/images/frame_00528.png"
        string_val: "./data/dvs_test/training/Run_1/images/frame_00529.png"
        string_val: "./data/dvs_test/training/Run_1/images/frame_00530.png"
        string_val: "./data/dvs_test/training/Run_1/images/frame_00531.png"
        string_val: "./data/dvs_test/training/Run_1/images/frame_00532.png"
        string_val: "./data/dvs_test/training/Run_1/images/frame_00533.png"
        string_val: "./data/dvs_test/training/Run_1/images/frame_00534.png"
        string_val: "./data/dvs_test/training/Run_1/images/frame_00535.png"
        string_val: "./data/dvs_test/training/Run_1/images/frame_00536.png"
        string_val: "./data/dvs_test/training/Run_1/images/frame_00537.png"
        string_val: "./data/dvs_test/training/Run_1/images/frame_00538.png"
        string_val: "./data/dvs_test/training/Run_1/images/frame_00539.png"
        string_val: "./data/dvs_test/training/Run_1/images/frame_00540.png"
        string_val: "./data/dvs_test/training/Run_1/images/frame_00541.png"
        string_val: "./data/dvs_test/training/Run_1/images/frame_00542.png"
        string_val: "./data/dvs_test/training/Run_1/images/frame_00543.png"
        string_val: "./data/dvs_test/training/Run_1/images/frame_00544.png"
        string_val: "./data/dvs_test/training/Run_1/images/frame_00545.png"
        string_val: "./data/dvs_test/training/Run_1/images/frame_00546.png"
        string_val: "./data/dvs_test/training/Run_1/images/frame_00547.png"
        string_val: "./data/dvs_test/training/Run_1/images/frame_00548.png"
        string_val: "./data/dvs_test/training/Run_1/images/frame_00549.png"
        string_val: "./data/dvs_test/training/Run_1/images/frame_00550.png"
        string_val: "./data/dvs_test/training/Run_1/images/frame_00551.png"
        string_val: "./data/dvs_test/training/Run_1/images/frame_00552.png"
        string_val: "./data/dvs_test/training/Run_1/images/frame_00553.png"
        string_val: "./data/dvs_test/training/Run_1/images/frame_00554.png"
        string_val: "./data/dvs_test/training/Run_1/images/frame_00555.png"
        string_val: "./data/dvs_test/training/Run_1/images/frame_00556.png"
        string_val: "./data/dvs_test/training/Run_1/images/frame_00557.png"
        string_val: "./data/dvs_test/training/Run_1/images/frame_00558.png"
        string_val: "./data/dvs_test/training/Run_1/images/frame_00559.png"
        string_val: "./data/dvs_test/training/Run_1/images/frame_00560.png"
        string_val: "./data/dvs_test/training/Run_1/images/frame_00561.png"
        string_val: "./data/dvs_test/training/Run_1/images/frame_00562.png"
        string_val: "./data/dvs_test/training/Run_1/images/frame_00563.png"
        string_val: "./data/dvs_test/training/Run_1/images/frame_00564.png"
        string_val: "./data/dvs_test/training/Run_1/images/frame_00565.png"
        string_val: "./data/dvs_test/training/Run_1/images/frame_00566.png"
        string_val: "./data/dvs_test/training/Run_1/images/frame_00567.png"
        string_val: "./data/dvs_test/training/Run_1/images/frame_00568.png"
        string_val: "./data/dvs_test/training/Run_1/images/frame_00569.png"
        string_val: "./data/dvs_test/training/Run_1/images/frame_00570.png"
        string_val: "./data/dvs_test/training/Run_1/images/frame_00571.png"
        string_val: "./data/dvs_test/training/Run_1/images/frame_00572.png"
        string_val: "./data/dvs_test/training/Run_1/images/frame_00573.png"
        string_val: "./data/dvs_test/training/Run_1/images/frame_00574.png"
        string_val: "./data/dvs_test/training/Run_1/images/frame_00575.png"
        string_val: "./data/dvs_test/training/Run_1/images/frame_00576.png"
        string_val: "./data/dvs_test/training/Run_1/images/frame_00577.png"
        string_val: "./data/dvs_test/training/Run_1/images/frame_00578.png"
        string_val: "./data/dvs_test/training/Run_1/images/frame_00579.png"
        string_val: "./data/dvs_test/training/Run_1/images/frame_00580.png"
        string_val: "./data/dvs_test/training/Run_1/images/frame_00581.png"
        string_val: "./data/dvs_test/training/Run_1/images/frame_00582.png"
        string_val: "./data/dvs_test/training/Run_1/images/frame_00583.png"
        string_val: "./data/dvs_test/training/Run_1/images/frame_00584.png"
        string_val: "./data/dvs_test/training/Run_1/images/frame_00585.png"
        string_val: "./data/dvs_test/training/Run_1/images/frame_00586.png"
        string_val: "./data/dvs_test/training/Run_1/images/frame_00587.png"
        string_val: "./data/dvs_test/training/Run_1/images/frame_00588.png"
        string_val: "./data/dvs_test/training/Run_1/images/frame_00589.png"
        string_val: "./data/dvs_test/training/Run_1/images/frame_00590.png"
        string_val: "./data/dvs_test/training/Run_1/images/frame_00591.png"
        string_val: "./data/dvs_test/training/Run_1/images/frame_00592.png"
        string_val: "./data/dvs_test/training/Run_1/images/frame_00593.png"
        string_val: "./data/dvs_test/training/Run_1/images/frame_00594.png"
        string_val: "./data/dvs_test/training/Run_1/images/frame_00595.png"
        string_val: "./data/dvs_test/training/Run_1/images/frame_00596.png"
        string_val: "./data/dvs_test/training/Run_1/images/frame_00597.png"
        string_val: "./data/dvs_test/training/Run_1/images/frame_00598.png"
        string_val: "./data/dvs_test/training/Run_1/images/frame_00599.png"
        string_val: "./data/dvs_test/training/Run_1/images/frame_00600.png"
        string_val: "./data/dvs_test/training/Run_1/images/frame_00601.png"
        string_val: "./data/dvs_test/training/Run_1/images/frame_00602.png"
        string_val: "./data/dvs_test/training/Run_1/images/frame_00603.png"
        string_val: "./data/dvs_test/training/Run_1/images/frame_00604.png"
        string_val: "./data/dvs_test/training/Run_1/images/frame_00605.png"
        string_val: "./data/dvs_test/training/Run_1/images/frame_00606.png"
        string_val: "./data/dvs_test/training/Run_1/images/frame_00607.png"
        string_val: "./data/dvs_test/training/Run_1/images/frame_00608.png"
        string_val: "./data/dvs_test/training/Run_1/images/frame_00609.png"
        string_val: "./data/dvs_test/training/Run_1/images/frame_00610.png"
        string_val: "./data/dvs_test/training/Run_1/images/frame_00611.png"
        string_val: "./data/dvs_test/training/Run_1/images/frame_00612.png"
        string_val: "./data/dvs_test/training/Run_1/images/frame_00613.png"
        string_val: "./data/dvs_test/training/Run_1/images/frame_00614.png"
        string_val: "./data/dvs_test/training/Run_1/images/frame_00615.png"
        string_val: "./data/dvs_test/training/Run_1/images/frame_00616.png"
        string_val: "./data/dvs_test/training/Run_1/images/frame_00617.png"
        string_val: "./data/dvs_test/training/Run_1/images/frame_00618.png"
        string_val: "./data/dvs_test/training/Run_1/images/frame_00619.png"
        string_val: "./data/dvs_test/training/Run_1/images/frame_00620.png"
        string_val: "./data/dvs_test/training/Run_1/images/frame_00621.png"
        string_val: "./data/dvs_test/training/Run_1/images/frame_00622.png"
        string_val: "./data/dvs_test/training/Run_1/images/frame_00623.png"
        string_val: "./data/dvs_test/training/Run_1/images/frame_00624.png"
        string_val: "./data/dvs_test/training/Run_1/images/frame_00625.png"
        string_val: "./data/dvs_test/training/Run_1/images/frame_00626.png"
        string_val: "./data/dvs_test/training/Run_1/images/frame_00627.png"
        string_val: "./data/dvs_test/training/Run_1/images/frame_00628.png"
        string_val: "./data/dvs_test/training/Run_1/images/frame_00629.png"
        string_val: "./data/dvs_test/training/Run_1/images/frame_00630.png"
        string_val: "./data/dvs_test/training/Run_1/images/frame_00631.png"
        string_val: "./data/dvs_test/training/Run_1/images/frame_00632.png"
        string_val: "./data/dvs_test/training/Run_1/images/frame_00633.png"
        string_val: "./data/dvs_test/training/Run_1/images/frame_00634.png"
        string_val: "./data/dvs_test/training/Run_1/images/frame_00635.png"
        string_val: "./data/dvs_test/training/Run_1/images/frame_00636.png"
        string_val: "./data/dvs_test/training/Run_1/images/frame_00637.png"
        string_val: "./data/dvs_test/training/Run_1/images/frame_00638.png"
        string_val: "./data/dvs_test/training/Run_1/images/frame_00639.png"
        string_val: "./data/dvs_test/training/Run_1/images/frame_00640.png"
        string_val: "./data/dvs_test/training/Run_1/images/frame_00641.png"
        string_val: "./data/dvs_test/training/Run_1/images/frame_00642.png"
        string_val: "./data/dvs_test/training/Run_1/images/frame_00643.png"
        string_val: "./data/dvs_test/training/Run_1/images/frame_00644.png"
        string_val: "./data/dvs_test/training/Run_1/images/frame_00645.png"
        string_val: "./data/dvs_test/training/Run_1/images/frame_00646.png"
        string_val: "./data/dvs_test/training/Run_1/images/frame_00647.png"
        string_val: "./data/dvs_test/training/Run_1/images/frame_00648.png"
        string_val: "./data/dvs_test/training/Run_1/images/frame_00649.png"
        string_val: "./data/dvs_test/training/Run_1/images/frame_00650.png"
        string_val: "./data/dvs_test/training/Run_1/images/frame_00651.png"
        string_val: "./data/dvs_test/training/Run_1/images/frame_00652.png"
        string_val: "./data/dvs_test/training/Run_1/images/frame_00653.png"
        string_val: "./data/dvs_test/training/Run_1/images/frame_00654.png"
        string_val: "./data/dvs_test/training/Run_1/images/frame_00655.png"
        string_val: "./data/dvs_test/training/Run_1/images/frame_00656.png"
        string_val: "./data/dvs_test/training/Run_1/images/frame_00657.png"
        string_val: "./data/dvs_test/training/Run_1/images/frame_00658.png"
        string_val: "./data/dvs_test/training/Run_1/images/frame_00659.png"
        string_val: "./data/dvs_test/training/Run_1/images/frame_00660.png"
        string_val: "./data/dvs_test/training/Run_1/images/frame_00661.png"
        string_val: "./data/dvs_test/training/Run_1/images/frame_00662.png"
        string_val: "./data/dvs_test/training/Run_1/images/frame_00663.png"
        string_val: "./data/dvs_test/training/Run_1/images/frame_00664.png"
        string_val: "./data/dvs_test/training/Run_1/images/frame_00665.png"
        string_val: "./data/dvs_test/training/Run_1/images/frame_00666.png"
        string_val: "./data/dvs_test/training/Run_1/images/frame_00667.png"
        string_val: "./data/dvs_test/training/Run_1/images/frame_00668.png"
        string_val: "./data/dvs_test/training/Run_1/images/frame_00669.png"
        string_val: "./data/dvs_test/training/Run_1/images/frame_00670.png"
        string_val: "./data/dvs_test/training/Run_1/images/frame_00671.png"
        string_val: "./data/dvs_test/training/Run_1/images/frame_00672.png"
        string_val: "./data/dvs_test/training/Run_1/images/frame_00673.png"
        string_val: "./data/dvs_test/training/Run_1/images/frame_00674.png"
        string_val: "./data/dvs_test/training/Run_1/images/frame_00675.png"
        string_val: "./data/dvs_test/training/Run_1/images/frame_00676.png"
        string_val: "./data/dvs_test/training/Run_1/images/frame_00677.png"
        string_val: "./data/dvs_test/training/Run_1/images/frame_00678.png"
        string_val: "./data/dvs_test/training/Run_1/images/frame_00679.png"
        string_val: "./data/dvs_test/training/Run_1/images/frame_00680.png"
        string_val: "./data/dvs_test/training/Run_1/images/frame_00681.png"
        string_val: "./data/dvs_test/training/Run_1/images/frame_00682.png"
        string_val: "./data/dvs_test/training/Run_1/images/frame_00683.png"
        string_val: "./data/dvs_test/training/Run_1/images/frame_00684.png"
        string_val: "./data/dvs_test/training/Run_1/images/frame_00685.png"
        string_val: "./data/dvs_test/training/Run_1/images/frame_00686.png"
        string_val: "./data/dvs_test/training/Run_1/images/frame_00687.png"
        string_val: "./data/dvs_test/training/Run_1/images/frame_00688.png"
        string_val: "./data/dvs_test/training/Run_1/images/frame_00689.png"
        string_val: "./data/dvs_test/training/Run_1/images/frame_00690.png"
        string_val: "./data/dvs_test/training/Run_1/images/frame_00691.png"
        string_val: "./data/dvs_test/training/Run_1/images/frame_00692.png"
        string_val: "./data/dvs_test/training/Run_1/images/frame_00693.png"
        string_val: "./data/dvs_test/training/Run_1/images/frame_00694.png"
        string_val: "./data/dvs_test/training/Run_1/images/frame_00695.png"
        string_val: "./data/dvs_test/training/Run_1/images/frame_00696.png"
        string_val: "./data/dvs_test/training/Run_1/images/frame_00697.png"
        string_val: "./data/dvs_test/training/Run_1/images/frame_00698.png"
        string_val: "./data/dvs_test/training/Run_1/images/frame_00699.png"
        string_val: "./data/dvs_test/training/Run_1/images/frame_00700.png"
        string_val: "./data/dvs_test/training/Run_1/images/frame_00701.png"
        string_val: "./data/dvs_test/training/Run_1/images/frame_00702.png"
        string_val: "./data/dvs_test/training/Run_1/images/frame_00703.png"
        string_val: "./data/dvs_test/training/Run_1/images/frame_00704.png"
        string_val: "./data/dvs_test/training/Run_1/images/frame_00705.png"
        string_val: "./data/dvs_test/training/Run_1/images/frame_00706.png"
        string_val: "./data/dvs_test/training/Run_1/images/frame_00707.png"
        string_val: "./data/dvs_test/training/Run_1/images/frame_00708.png"
        string_val: "./data/dvs_test/training/Run_1/images/frame_00709.png"
        string_val: "./data/dvs_test/training/Run_1/images/frame_00710.png"
        string_val: "./data/dvs_test/training/Run_1/images/frame_00711.png"
        string_val: "./data/dvs_test/training/Run_1/images/frame_00712.png"
        string_val: "./data/dvs_test/training/Run_1/images/frame_00713.png"
        string_val: "./data/dvs_test/training/Run_1/images/frame_00714.png"
        string_val: "./data/dvs_test/training/Run_1/images/frame_00715.png"
        string_val: "./data/dvs_test/training/Run_1/images/frame_00716.png"
        string_val: "./data/dvs_test/training/Run_1/images/frame_00717.png"
        string_val: "./data/dvs_test/training/Run_1/images/frame_00718.png"
        string_val: "./data/dvs_test/training/Run_1/images/frame_00719.png"
        string_val: "./data/dvs_test/training/Run_1/images/frame_00720.png"
        string_val: "./data/dvs_test/training/Run_1/images/frame_00721.png"
        string_val: "./data/dvs_test/training/Run_1/images/frame_00722.png"
        string_val: "./data/dvs_test/training/Run_1/images/frame_00723.png"
        string_val: "./data/dvs_test/training/Run_1/images/frame_00724.png"
        string_val: "./data/dvs_test/training/Run_1/images/frame_00725.png"
        string_val: "./data/dvs_test/training/Run_1/images/frame_00726.png"
        string_val: "./data/dvs_test/training/Run_1/images/frame_00727.png"
        string_val: "./data/dvs_test/training/Run_1/images/frame_00728.png"
        string_val: "./data/dvs_test/training/Run_1/images/frame_00729.png"
        string_val: "./data/dvs_test/training/Run_1/images/frame_00730.png"
        string_val: "./data/dvs_test/training/Run_1/images/frame_00731.png"
        string_val: "./data/dvs_test/training/Run_1/images/frame_00732.png"
        string_val: "./data/dvs_test/training/Run_1/images/frame_00733.png"
        string_val: "./data/dvs_test/training/Run_1/images/frame_00734.png"
        string_val: "./data/dvs_test/training/Run_1/images/frame_00735.png"
        string_val: "./data/dvs_test/training/Run_1/images/frame_00736.png"
        string_val: "./data/dvs_test/training/Run_1/images/frame_00737.png"
        string_val: "./data/dvs_test/training/Run_1/images/frame_00738.png"
        string_val: "./data/dvs_test/training/Run_1/images/frame_00739.png"
        string_val: "./data/dvs_test/training/Run_1/images/frame_00740.png"
        string_val: "./data/dvs_test/training/Run_1/images/frame_00741.png"
        string_val: "./data/dvs_test/training/Run_1/images/frame_00742.png"
        string_val: "./data/dvs_test/training/Run_1/images/frame_00743.png"
        string_val: "./data/dvs_test/training/Run_1/images/frame_00744.png"
        string_val: "./data/dvs_test/training/Run_1/images/frame_00745.png"
        string_val: "./data/dvs_test/training/Run_1/images/frame_00746.png"
        string_val: "./data/dvs_test/training/Run_1/images/frame_00747.png"
        string_val: "./data/dvs_test/training/Run_1/images/frame_00748.png"
        string_val: "./data/dvs_test/training/Run_1/images/frame_00749.png"
        string_val: "./data/dvs_test/training/Run_1/images/frame_00750.png"
        string_val: "./data/dvs_test/training/Run_1/images/frame_00751.png"
        string_val: "./data/dvs_test/training/Run_1/images/frame_00752.png"
        string_val: "./data/dvs_test/training/Run_1/images/frame_00753.png"
        string_val: "./data/dvs_test/training/Run_1/images/frame_00754.png"
        string_val: "./data/dvs_test/training/Run_1/images/frame_00755.png"
        string_val: "./data/dvs_test/training/Run_1/images/frame_00756.png"
        string_val: "./data/dvs_test/training/Run_1/images/frame_00757.png"
        string_val: "./data/dvs_test/training/Run_1/images/frame_00758.png"
        string_val: "./data/dvs_test/training/Run_1/images/frame_00759.png"
        string_val: "./data/dvs_test/training/Run_1/images/frame_00760.png"
        string_val: "./data/dvs_test/training/Run_1/images/frame_00761.png"
        string_val: "./data/dvs_test/training/Run_1/images/frame_00762.png"
        string_val: "./data/dvs_test/training/Run_1/images/frame_00763.png"
        string_val: "./data/dvs_test/training/Run_1/images/frame_00764.png"
        string_val: "./data/dvs_test/training/Run_1/images/frame_00765.png"
        string_val: "./data/dvs_test/training/Run_1/images/frame_00766.png"
        string_val: "./data/dvs_test/training/Run_1/images/frame_00767.png"
        string_val: "./data/dvs_test/training/Run_1/images/frame_00768.png"
        string_val: "./data/dvs_test/training/Run_1/images/frame_00769.png"
        string_val: "./data/dvs_test/training/Run_1/images/frame_00770.png"
        string_val: "./data/dvs_test/training/Run_1/images/frame_00771.png"
        string_val: "./data/dvs_test/training/Run_1/images/frame_00772.png"
        string_val: "./data/dvs_test/training/Run_1/images/frame_00773.png"
        string_val: "./data/dvs_test/training/Run_1/images/frame_00774.png"
        string_val: "./data/dvs_test/training/Run_1/images/frame_00775.png"
        string_val: "./data/dvs_test/training/Run_1/images/frame_00776.png"
        string_val: "./data/dvs_test/training/Run_1/images/frame_00777.png"
        string_val: "./data/dvs_test/training/Run_1/images/frame_00778.png"
        string_val: "./data/dvs_test/training/Run_1/images/frame_00779.png"
        string_val: "./data/dvs_test/training/Run_1/images/frame_00780.png"
        string_val: "./data/dvs_test/training/Run_1/images/frame_00781.png"
        string_val: "./data/dvs_test/training/Run_1/images/frame_00782.png"
        string_val: "./data/dvs_test/training/Run_1/images/frame_00783.png"
        string_val: "./data/dvs_test/training/Run_1/images/frame_00784.png"
        string_val: "./data/dvs_test/training/Run_1/images/frame_00785.png"
        string_val: "./data/dvs_test/training/Run_1/images/frame_00786.png"
        string_val: "./data/dvs_test/training/Run_1/images/frame_00787.png"
        string_val: "./data/dvs_test/training/Run_1/images/frame_00788.png"
        string_val: "./data/dvs_test/training/Run_1/images/frame_00789.png"
        string_val: "./data/dvs_test/training/Run_1/images/frame_00790.png"
        string_val: "./data/dvs_test/training/Run_1/images/frame_00791.png"
        string_val: "./data/dvs_test/training/Run_1/images/frame_00792.png"
        string_val: "./data/dvs_test/training/Run_1/images/frame_00793.png"
        string_val: "./data/dvs_test/training/Run_1/images/frame_00794.png"
        string_val: "./data/dvs_test/training/Run_1/images/frame_00795.png"
        string_val: "./data/dvs_test/training/Run_1/images/frame_00796.png"
        string_val: "./data/dvs_test/training/Run_1/images/frame_00797.png"
        string_val: "./data/dvs_test/training/Run_1/images/frame_00798.png"
        string_val: "./data/dvs_test/training/Run_1/images/frame_00799.png"
        string_val: "./data/dvs_test/training/Run_1/images/frame_00800.png"
      }
    }
  }
}
node {
  name: "data_loading/tensors/component_1"
  op: "Const"
  attr {
    key: "_output_shapes"
    value {
      list {
        shape {
          dim {
            size: 801
          }
        }
      }
    }
  }
  attr {
    key: "dtype"
    value {
      type: DT_FLOAT
    }
  }
  attr {
    key: "value"
    value {
      tensor {
        dtype: DT_FLOAT
        tensor_shape {
          dim {
            size: 801
          }
        }
        tensor_content: "…"
      }
    }
  }
}
node {
  name: "data_loading/num_threads"
  op: "Const"
  attr {
    key: "_output_shapes"
    value {
      list {
        shape {
        }
      }
    }
  }
  attr {
    key: "dtype"
    value {
      type: DT_INT32
    }
  }
  attr {
    key: "value"
    value {
      tensor {
        dtype: DT_INT32
        tensor_shape {
        }
        int_val: 8
      }
    }
  }
}
node {
  name: "data_loading/output_buffer_size"
  op: "Const"
  attr {
    key: "_output_shapes"
    value {
      list {
        shape {
        }
      }
    }
  }
  attr {
    key: "dtype"
    value {
      type: DT_INT64
    }
  }
  attr {
    key: "value"
    value {
      tensor {
        dtype: DT_INT64
        tensor_shape {
        }
        int64_val: 100
      }
    }
  }
}
node {
  name: "data_loading/buffer_size"
  op: "Const"
  attr {
    key: "_output_shapes"
    value {
      list {
        shape {
        }
      }
    }
  }
  attr {
    key: "dtype"
    value {
      type: DT_INT64
    }
  }
  attr {
    key: "value"
    value {
      tensor {
        dtype: DT_INT64
        tensor_shape {
        }
        int64_val: 1000
      }
    }
  }
}
node {
  name: "data_loading/seed"
  op: "Const"
  attr {
    key: "_output_shapes"
    value {
      list {
        shape {
        }
      }
    }
  }
  attr {
    key: "dtype"
    value {
      type: DT_INT64
    }
  }
  attr {
    key: "value"
    value {
      tensor {
        dtype: DT_INT64
        tensor_shape {
        }
        int64_val: 8964
      }
    }
  }
}
node {
  name: "data_loading/seed2"
  op: "Const"
  attr {
    key: "_output_shapes"
    value {
      list {
        shape {
        }
      }
    }
  }
  attr {
    key: "dtype"
    value {
      type: DT_INT64
    }
  }
  attr {
    key: "value"
    value {
      tensor {
        dtype: DT_INT64
        tensor_shape {
        }
        int64_val: 431779219
      }
    }
  }
}
node {
  name: "data_loading/count"
  op: "Const"
  attr {
    key: "_output_shapes"
    value {
      list {
        shape {
        }
      }
    }
  }
  attr {
    key: "dtype"
    value {
      type: DT_INT64
    }
  }
  attr {
    key: "value"
    value {
      tensor {
        dtype: DT_INT64
        tensor_shape {
        }
        int64_val: 100
      }
    }
  }
}
node {
  name: "data_loading/Iterator"
  op: "Iterator"
  attr {
    key: "_output_shapes"
    value {
      list {
        shape {
        }
      }
    }
  }
  attr {
    key: "container"
    value {
      s: ""
    }
  }
  attr {
    key: "output_shapes"
    value {
      list {
        shape {
          dim {
            size: -1
          }
          dim {
            size: 200
          }
          dim {
            size: 200
          }
          dim {
            size: 2
          }
        }
        shape {
          dim {
            size: -1
          }
        }
      }
    }
  }
  attr {
    key: "output_types"
    value {
      list {
        type: DT_FLOAT
        type: DT_FLOAT
      }
    }
  }
  attr {
    key: "shared_name"
    value {
      s: ""
    }
  }
}
node {
  name: "data_loading/TensorSliceDataset"
  op: "TensorSliceDataset"
  input: "data_loading/tensors/component_0"
  input: "data_loading/tensors/component_1"
  attr {
    key: "Toutput_types"
    value {
      list {
        type: DT_STRING
        type: DT_FLOAT
      }
    }
  }
  attr {
    key: "_output_shapes"
    value {
      list {
        shape {
        }
      }
    }
  }
  attr {
    key: "output_shapes"
    value {
      list {
        shape {
        }
        shape {
        }
      }
    }
  }
}
node {
  name: "data_loading/ParallelMapDataset"
  op: "ParallelMapDataset"
  input: "data_loading/TensorSliceDataset"
  input: "data_loading/num_threads"
  input: "data_loading/output_buffer_size"
  attr {
    key: "Targuments"
    value {
      list {
      }
    }
  }
  attr {
    key: "_output_shapes"
    value {
      list {
        shape {
        }
      }
    }
  }
  attr {
    key: "f"
    value {
      func {
        name: "tf_map_func_21cab2e2"
      }
    }
  }
  attr {
    key: "output_shapes"
    value {
      list {
        shape {
          dim {
            size: 200
          }
          dim {
            size: 200
          }
          dim {
            size: 2
          }
        }
        shape {
        }
      }
    }
  }
  attr {
    key: "output_types"
    value {
      list {
        type: DT_FLOAT
        type: DT_FLOAT
      }
    }
  }
}
node {
  name: "data_loading/ShuffleDataset"
  op: "ShuffleDataset"
  input: "data_loading/ParallelMapDataset"
  input: "data_loading/buffer_size"
  input: "data_loading/seed"
  input: "data_loading/seed2"
  attr {
    key: "_output_shapes"
    value {
      list {
        shape {
        }
      }
    }
  }
  attr {
    key: "output_shapes"
    value {
      list {
        shape {
          dim {
            size: 200
          }
          dim {
            size: 200
          }
          dim {
            size: 2
          }
        }
        shape {
        }
      }
    }
  }
  attr {
    key: "output_types"
    value {
      list {
        type: DT_FLOAT
        type: DT_FLOAT
      }
    }
  }
}
node {
  name: "data_loading/BatchDataset/batch_size"
  op: "Const"
  attr {
    key: "_output_shapes"
    value {
      list {
        shape {
        }
      }
    }
  }
  attr {
    key: "dtype"
    value {
      type: DT_INT64
    }
  }
  attr {
    key: "value"
    value {
      tensor {
        dtype: DT_INT64
        tensor_shape {
        }
        int64_val: 15
      }
    }
  }
}
node {
  name: "data_loading/BatchDataset"
  op: "BatchDataset"
  input: "data_loading/ShuffleDataset"
  input: "data_loading/BatchDataset/batch_size"
  attr {
    key: "_output_shapes"
    value {
      list {
        shape {
        }
      }
    }
  }
  attr {
    key: "output_shapes"
    value {
      list {
        shape {
          dim {
            size: -1
          }
          dim {
            size: 200
          }
          dim {
            size: 200
          }
          dim {
            size: 2
          }
        }
        shape {
          dim {
            size: -1
          }
        }
      }
    }
  }
  attr {
    key: "output_types"
    value {
      list {
        type: DT_FLOAT
        type: DT_FLOAT
      }
    }
  }
}
node {
  name: "data_loading/RepeatDataset"
  op: "RepeatDataset"
  input: "data_loading/BatchDataset"
  input: "data_loading/count"
  attr {
    key: "_output_shapes"
    value {
      list {
        shape {
        }
      }
    }
  }
  attr {
    key: "output_shapes"
    value {
      list {
        shape {
          dim {
            size: -1
          }
          dim {
            size: 200
          }
          dim {
            size: 200
          }
          dim {
            size: 2
          }
        }
        shape {
          dim {
            size: -1
          }
        }
      }
    }
  }
  attr {
    key: "output_types"
    value {
      list {
        type: DT_FLOAT
        type: DT_FLOAT
      }
    }
  }
}
node {
  name: "data_loading/MakeIterator"
  op: "MakeIterator"
  input: "data_loading/RepeatDataset"
  input: "data_loading/Iterator"
}
node {
  name: "data_loading/IteratorGetNext"
  op: "IteratorGetNext"
  input: "data_loading/Iterator"
  attr {
    key: "_output_shapes"
    value {
      list {
        shape {
          dim {
            size: -1
          }
          dim {
            size: 200
          }
          dim {
            size: 200
          }
          dim {
            size: 2
          }
        }
        shape {
          dim {
            size: -1
          }
        }
      }
    }
  }
  attr {
    key: "output_shapes"
    value {
      list {
        shape {
          dim {
            size: -1
          }
          dim {
            size: 200
          }
          dim {
            size: 200
          }
          dim {
            size: 2
          }
        }
        shape {
          dim {
            size: -1
          }
        }
      }
    }
  }
  attr {
    key: "output_types"
    value {
      list {
        type: DT_FLOAT
        type: DT_FLOAT
      }
    }
  }
}
node {
  name: "CNN_prediction/is_training"
  op: "Placeholder"
  attr {
    key: "_output_shapes"
    value {
      list {
        shape {
        }
      }
    }
  }
  attr {
    key: "dtype"
    value {
      type: DT_BOOL
    }
  }
  attr {
    key: "shape"
    value {
      shape {
      }
    }
  }
}
node {
  name: "Prediction/Conv/weights/Initializer/random_uniform/shape"
  op: "Const"
  attr {
    key: "_class"
    value {
      list {
        s: "loc:@Prediction/Conv/weights"
      }
    }
  }
  attr {
    key: "_output_shapes"
    value {
      list {
        shape {
          dim {
            size: 4
          }
        }
      }
    }
  }
  attr {
    key: "dtype"
    value {
      type: DT_INT32
    }
  }
  attr {
    key: "value"
    value {
      tensor {
        dtype: DT_INT32
        tensor_shape {
          dim {
            size: 4
          }
        }
        tensor_content: "\005\000\000\000\005\000\000\000\002\000\000\000 \000\000\000"
      }
    }
  }
}
node {
  name: "Prediction/Conv/weights/Initializer/random_uniform/min"
  op: "Const"
  attr {
    key: "_class"
    value {
      list {
        s: "loc:@Prediction/Conv/weights"
      }
    }
  }
  attr {
    key: "_output_shapes"
    value {
      list {
        shape {
        }
      }
    }
  }
  attr {
    key: "dtype"
    value {
      type: DT_FLOAT
    }
  }
  attr {
    key: "value"
    value {
      tensor {
        dtype: DT_FLOAT
        tensor_shape {
        }
        float_val: -0.08401680737733841
      }
    }
  }
}
node {
  name: "Prediction/Conv/weights/Initializer/random_uniform/max"
  op: "Const"
  attr {
    key: "_class"
    value {
      list {
        s: "loc:@Prediction/Conv/weights"
      }
    }
  }
  attr {
    key: "_output_shapes"
    value {
      list {
        shape {
        }
      }
    }
  }
  attr {
    key: "dtype"
    value {
      type: DT_FLOAT
    }
  }
  attr {
    key: "value"
    value {
      tensor {
        dtype: DT_FLOAT
        tensor_shape {
        }
        float_val: 0.08401680737733841
      }
    }
  }
}
node {
  name: "Prediction/Conv/weights/Initializer/random_uniform/RandomUniform"
  op: "RandomUniform"
  input: "Prediction/Conv/weights/Initializer/random_uniform/shape"
  attr {
    key: "T"
    value {
      type: DT_INT32
    }
  }
  attr {
    key: "_class"
    value {
      list {
        s: "loc:@Prediction/Conv/weights"
      }
    }
  }
  attr {
    key: "_output_shapes"
    value {
      list {
        shape {
          dim {
            size: 5
          }
          dim {
            size: 5
          }
          dim {
            size: 2
          }
          dim {
            size: 32
          }
        }
      }
    }
  }
  attr {
    key: "dtype"
    value {
      type: DT_FLOAT
    }
  }
  attr {
    key: "seed"
    value {
      i: 8964
    }
  }
  attr {
    key: "seed2"
    value {
      i: 21
    }
  }
}
node {
  name: "Prediction/Conv/weights/Initializer/random_uniform/sub"
  op: "Sub"
  input: "Prediction/Conv/weights/Initializer/random_uniform/max"
  input: "Prediction/Conv/weights/Initializer/random_uniform/min"
  attr {
    key: "T"
    value {
      type: DT_FLOAT
    }
  }
  attr {
    key: "_class"
    value {
      list {
        s: "loc:@Prediction/Conv/weights"
      }
    }
  }
  attr {
    key: "_output_shapes"
    value {
      list {
        shape {
        }
      }
    }
  }
}
node {
  name: "Prediction/Conv/weights/Initializer/random_uniform/mul"
  op: "Mul"
  input: "Prediction/Conv/weights/Initializer/random_uniform/RandomUniform"
  input: "Prediction/Conv/weights/Initializer/random_uniform/sub"
  attr {
    key: "T"
    value {
      type: DT_FLOAT
    }
  }
  attr {
    key: "_class"
    value {
      list {
        s: "loc:@Prediction/Conv/weights"
      }
    }
  }
  attr {
    key: "_output_shapes"
    value {
      list {
        shape {
          dim {
            size: 5
          }
          dim {
            size: 5
          }
          dim {
            size: 2
          }
          dim {
            size: 32
          }
        }
      }
    }
  }
}
node {
  name: "Prediction/Conv/weights/Initializer/random_uniform"
  op: "Add"
  input: "Prediction/Conv/weights/Initializer/random_uniform/mul"
  input: "Prediction/Conv/weights/Initializer/random_uniform/min"
  attr {
    key: "T"
    value {
      type: DT_FLOAT
    }
  }
  attr {
    key: "_class"
    value {
      list {
        s: "loc:@Prediction/Conv/weights"
      }
    }
  }
  attr {
    key: "_output_shapes"
    value {
      list {
        shape {
          dim {
            size: 5
          }
          dim {
            size: 5
          }
          dim {
            size: 2
          }
          dim {
            size: 32
          }
        }
      }
    }
  }
}
node {
  name: "Prediction/Conv/weights"
  op: "VariableV2"
  attr {
    key: "_class"
    value {
      list {
        s: "loc:@Prediction/Conv/weights"
      }
    }
  }
  attr {
    key: "_output_shapes"
    value {
      list {
        shape {
          dim {
            size: 5
          }
          dim {
            size: 5
          }
          dim {
            size: 2
          }
          dim {
            size: 32
          }
        }
      }
    }
  }
  attr {
    key: "container"
    value {
      s: ""
    }
  }
  attr {
    key: "dtype"
    value {
      type: DT_FLOAT
    }
  }
  attr {
    key: "shape"
    value {
      shape {
        dim {
          size: 5
        }
        dim {
          size: 5
        }
        dim {
          size: 2
        }
        dim {
          size: 32
        }
      }
    }
  }
  attr {
    key: "shared_name"
    value {
      s: ""
    }
  }
}
node {
  name: "Prediction/Conv/weights/Assign"
  op: "Assign"
  input: "Prediction/Conv/weights"
  input: "Prediction/Conv/weights/Initializer/random_uniform"
  attr {
    key: "T"
    value {
      type: DT_FLOAT
    }
  }
  attr {
    key: "_class"
    value {
      list {
        s: "loc:@Prediction/Conv/weights"
      }
    }
  }
  attr {
    key: "_output_shapes"
    value {
      list {
        shape {
          dim {
            size: 5
          }
          dim {
            size: 5
          }
          dim {
            size: 2
          }
          dim {
            size: 32
          }
        }
      }
    }
  }
  attr {
    key: "use_locking"
    value {
      b: true
    }
  }
  attr {
    key: "validate_shape"
    value {
      b: true
    }
  }
}
node {
  name: "Prediction/Conv/weights/read"
  op: "Identity"
  input: "Prediction/Conv/weights"
  attr {
    key: "T"
    value {
      type: DT_FLOAT
    }
  }
  attr {
    key: "_class"
    value {
      list {
        s: "loc:@Prediction/Conv/weights"
      }
    }
  }
  attr {
    key: "_output_shapes"
    value {
      list {
        shape {
          dim {
            size: 5
          }
          dim {
            size: 5
          }
          dim {
            size: 2
          }
          dim {
            size: 32
          }
        }
      }
    }
  }
}
node {
  name: "Prediction/Conv/biases/Initializer/zeros"
  op: "Const"
  attr {
    key: "_class"
    value {
      list {
        s: "loc:@Prediction/Conv/biases"
      }
    }
  }
  attr {
    key: "_output_shapes"
    value {
      list {
        shape {
          dim {
            size: 32
          }
        }
      }
    }
  }
  attr {
    key: "dtype"
    value {
      type: DT_FLOAT
    }
  }
  attr {
    key: "value"
    value {
      tensor {
        dtype: DT_FLOAT
        tensor_shape {
          dim {
            size: 32
          }
        }
        float_val: 0.0
      }
    }
  }
}
node {
  name: "Prediction/Conv/biases"
  op: "VariableV2"
  attr {
    key: "_class"
    value {
      list {
        s: "loc:@Prediction/Conv/biases"
      }
    }
  }
  attr {
    key: "_output_shapes"
    value {
      list {
        shape {
          dim {
            size: 32
          }
        }
      }
    }
  }
  attr {
    key: "container"
    value {
      s: ""
    }
  }
  attr {
    key: "dtype"
    value {
      type: DT_FLOAT
    }
  }
  attr {
    key: "shape"
    value {
      shape {
        dim {
          size: 32
        }
      }
    }
  }
  attr {
    key: "shared_name"
    value {
      s: ""
    }
  }
}
node {
  name: "Prediction/Conv/biases/Assign"
  op: "Assign"
  input: "Prediction/Conv/biases"
  input: "Prediction/Conv/biases/Initializer/zeros"
  attr {
    key: "T"
    value {
      type: DT_FLOAT
    }
  }
  attr {
    key: "_class"
    value {
      list {
        s: "loc:@Prediction/Conv/biases"
      }
    }
  }
  attr {
    key: "_output_shapes"
    value {
      list {
        shape {
          dim {
            size: 32
          }
        }
      }
    }
  }
  attr {
    key: "use_locking"
    value {
      b: true
    }
  }
  attr {
    key: "validate_shape"
    value {
      b: true
    }
  }
}
node {
  name: "Prediction/Conv/biases/read"
  op: "Identity"
  input: "Prediction/Conv/biases"
  attr {
    key: "T"
    value {
      type: DT_FLOAT
    }
  }
  attr {
    key: "_class"
    value {
      list {
        s: "loc:@Prediction/Conv/biases"
      }
    }
  }
  attr {
    key: "_output_shapes"
    value {
      list {
        shape {
          dim {
            size: 32
          }
        }
      }
    }
  }
}
node {
  name: "CNN_prediction/Prediction/Conv/convolution/Shape"
  op: "Const"
  attr {
    key: "_output_shapes"
    value {
      list {
        shape {
          dim {
            size: 4
          }
        }
      }
    }
  }
  attr {
    key: "dtype"
    value {
      type: DT_INT32
    }
  }
  attr {
    key: "value"
    value {
      tensor {
        dtype: DT_INT32
        tensor_shape {
          dim {
            size: 4
          }
        }
        tensor_content: "\005\000\000\000\005\000\000\000\002\000\000\000 \000\000\000"
      }
    }
  }
}
node {
  name: "CNN_prediction/Prediction/Conv/convolution/dilation_rate"
  op: "Const"
  attr {
    key: "_output_shapes"
    value {
      list {
        shape {
          dim {
            size: 2
          }
        }
      }
    }
  }
  attr {
    key: "dtype"
    value {
      type: DT_INT32
    }
  }
  attr {
    key: "value"
    value {
      tensor {
        dtype: DT_INT32
        tensor_shape {
          dim {
            size: 2
          }
        }
        tensor_content: "\001\000\000\000\001\000\000\000"
      }
    }
  }
}
node {
  name: "CNN_prediction/Prediction/Conv/convolution"
  op: "Conv2D"
  input: "data_loading/IteratorGetNext"
  input: "Prediction/Conv/weights/read"
  attr {
    key: "T"
    value {
      type: DT_FLOAT
    }
  }
  attr {
    key: "_output_shapes"
    value {
      list {
        shape {
          dim {
            size: -1
          }
          dim {
            size: 100
          }
          dim {
            size: 100
          }
          dim {
            size: 32
          }
        }
      }
    }
  }
  attr {
    key: "data_format"
    value {
      s: "NHWC"
    }
  }
  attr {
    key: "padding"
    value {
      s: "SAME"
    }
  }
  attr {
    key: "strides"
    value {
      list {
        i: 1
        i: 2
        i: 2
        i: 1
      }
    }
  }
  attr {
    key: "use_cudnn_on_gpu"
    value {
      b: true
    }
  }
}
node {
  name: "CNN_prediction/Prediction/Conv/BiasAdd"
  op: "BiasAdd"
  input: "CNN_prediction/Prediction/Conv/convolution"
  input: "Prediction/Conv/biases/read"
  attr {
    key: "T"
    value {
      type: DT_FLOAT
    }
  }
  attr {
    key: "_output_shapes"
    value {
      list {
        shape {
          dim {
            size: -1
          }
          dim {
            size: 100
          }
          dim {
            size: 100
          }
          dim {
            size: 32
          }
        }
      }
    }
  }
  attr {
    key: "data_format"
    value {
      s: "NHWC"
    }
  }
}
node {
  name: "CNN_prediction/Prediction/Conv/Relu"
  op: "Relu"
  input: "CNN_prediction/Prediction/Conv/BiasAdd"
  attr {
    key: "T"
    value {
      type: DT_FLOAT
    }
  }
  attr {
    key: "_output_shapes"
    value {
      list {
        shape {
          dim {
            size: -1
          }
          dim {
            size: 100
          }
          dim {
            size: 100
          }
          dim {
            size: 32
          }
        }
      }
    }
  }
}
node {
  name: "CNN_prediction/Prediction/MaxPool2D/MaxPool"
  op: "MaxPool"
  input: "CNN_prediction/Prediction/Conv/Relu"
  attr {
    key: "T"
    value {
      type: DT_FLOAT
    }
  }
  attr {
    key: "_output_shapes"
    value {
      list {
        shape {
          dim {
            size: -1
          }
          dim {
            size: 49
          }
          dim {
            size: 49
          }
          dim {
            size: 32
          }
        }
      }
    }
  }
  attr {
    key: "data_format"
    value {
      s: "NHWC"
    }
  }
  attr {
    key: "ksize"
    value {
      list {
        i: 1
        i: 3
        i: 3
        i: 1
      }
    }
  }
  attr {
    key: "padding"
    value {
      s: "VALID"
    }
  }
  attr {
    key: "strides"
    value {
      list {
        i: 1
        i: 2
        i: 2
        i: 1
      }
    }
  }
}
node {
  name: "CNN_prediction/Prediction/Relu"
  op: "Relu"
  input: "CNN_prediction/Prediction/MaxPool2D/MaxPool"
  attr {
    key: "T"
    value {
      type: DT_FLOAT
    }
  }
  attr {
    key: "_output_shapes"
    value {
      list {
        shape {
          dim {
            size: -1
          }
          dim {
            size: 49
          }
          dim {
            size: 49
          }
          dim {
            size: 32
          }
        }
      }
    }
  }
}
node {
  name: "Prediction/Conv_1/weights/Initializer/random_uniform/shape"
  op: "Const"
  attr {
    key: "_class"
    value {
      list {
        s: "loc:@Prediction/Conv_1/weights"
      }
    }
  }
  attr {
    key: "_output_shapes"
    value {
      list {
        shape {
          dim {
            size: 4
          }
        }
      }
    }
  }
  attr {
    key: "dtype"
    value {
      type: DT_INT32
    }
  }
  attr {
    key: "value"
    value {
      tensor {
        dtype: DT_INT32
        tensor_shape {
          dim {
            size: 4
          }
        }
        tensor_content: "\003\000\000\000\003\000\000\000 \000\000\000 \000\000\000"
      }
    }
  }
}
node {
  name: "Prediction/Conv_1/weights/Initializer/random_uniform/min"
  op: "Const"
  attr {
    key: "_class"
    value {
      list {
        s: "loc:@Prediction/Conv_1/weights"
      }
    }
  }
  attr {
    key: "_output_shapes"
    value {
      list {
        shape {
        }
      }
    }
  }
  attr {
    key: "dtype"
    value {
      type: DT_FLOAT
    }
  }
  attr {
    key: "value"
    value {
      tensor {
        dtype: DT_FLOAT
        tensor_shape {
        }
        float_val: -0.10206207633018494
      }
    }
  }
}
node {
  name: "Prediction/Conv_1/weights/Initializer/random_uniform/max"
  op: "Const"
  attr {
    key: "_class"
    value {
      list {
        s: "loc:@Prediction/Conv_1/weights"
      }
    }
  }
  attr {
    key: "_output_shapes"
    value {
      list {
        shape {
        }
      }
    }
  }
  attr {
    key: "dtype"
    value {
      type: DT_FLOAT
    }
  }
  attr {
    key: "value"
    value {
      tensor {
        dtype: DT_FLOAT
        tensor_shape {
        }
        float_val: 0.10206207633018494
      }
    }
  }
}
node {
  name: "Prediction/Conv_1/weights/Initializer/random_uniform/RandomUniform"
  op: "RandomUniform"
  input: "Prediction/Conv_1/weights/Initializer/random_uniform/shape"
  attr {
    key: "T"
    value {
      type: DT_INT32
    }
  }
  attr {
    key: "_class"
    value {
      list {
        s: "loc:@Prediction/Conv_1/weights"
      }
    }
  }
  attr {
    key: "_output_shapes"
    value {
      list {
        shape {
          dim {
            size: 3
          }
          dim {
            size: 3
          }
          dim {
            size: 32
          }
          dim {
            size: 32
          }
        }
      }
    }
  }
  attr {
    key: "dtype"
    value {
      type: DT_FLOAT
    }
  }
  attr {
    key: "seed"
    value {
      i: 8964
    }
  }
  attr {
    key: "seed2"
    value {
      i: 42
    }
  }
}
node {
  name: "Prediction/Conv_1/weights/Initializer/random_uniform/sub"
  op: "Sub"
  input: "Prediction/Conv_1/weights/Initializer/random_uniform/max"
  input: "Prediction/Conv_1/weights/Initializer/random_uniform/min"
  attr {
    key: "T"
    value {
      type: DT_FLOAT
    }
  }
  attr {
    key: "_class"
    value {
      list {
        s: "loc:@Prediction/Conv_1/weights"
      }
    }
  }
  attr {
    key: "_output_shapes"
    value {
      list {
        shape {
        }
      }
    }
  }
}
node {
  name: "Prediction/Conv_1/weights/Initializer/random_uniform/mul"
  op: "Mul"
  input: "Prediction/Conv_1/weights/Initializer/random_uniform/RandomUniform"
  input: "Prediction/Conv_1/weights/Initializer/random_uniform/sub"
  attr {
    key: "T"
    value {
      type: DT_FLOAT
    }
  }
  attr {
    key: "_class"
    value {
      list {
        s: "loc:@Prediction/Conv_1/weights"
      }
    }
  }
  attr {
    key: "_output_shapes"
    value {
      list {
        shape {
          dim {
            size: 3
          }
          dim {
            size: 3
          }
          dim {
            size: 32
          }
          dim {
            size: 32
          }
        }
      }
    }
  }
}
node {
  name: "Prediction/Conv_1/weights/Initializer/random_uniform"
  op: "Add"
  input: "Prediction/Conv_1/weights/Initializer/random_uniform/mul"
  input: "Prediction/Conv_1/weights/Initializer/random_uniform/min"
  attr {
    key: "T"
    value {
      type: DT_FLOAT
    }
  }
  attr {
    key: "_class"
    value {
      list {
        s: "loc:@Prediction/Conv_1/weights"
      }
    }
  }
  attr {
    key: "_output_shapes"
    value {
      list {
        shape {
          dim {
            size: 3
          }
          dim {
            size: 3
          }
          dim {
            size: 32
          }
          dim {
            size: 32
          }
        }
      }
    }
  }
}
node {
  name: "Prediction/Conv_1/weights"
  op: "VariableV2"
  attr {
    key: "_class"
    value {
      list {
        s: "loc:@Prediction/Conv_1/weights"
      }
    }
  }
  attr {
    key: "_output_shapes"
    value {
      list {
        shape {
          dim {
            size: 3
          }
          dim {
            size: 3
          }
          dim {
            size: 32
          }
          dim {
            size: 32
          }
        }
      }
    }
  }
  attr {
    key: "container"
    value {
      s: ""
    }
  }
  attr {
    key: "dtype"
    value {
      type: DT_FLOAT
    }
  }
  attr {
    key: "shape"
    value {
      shape {
        dim {
          size: 3
        }
        dim {
          size: 3
        }
        dim {
          size: 32
        }
        dim {
          size: 32
        }
      }
    }
  }
  attr {
    key: "shared_name"
    value {
      s: ""
    }
  }
}
node {
  name: "Prediction/Conv_1/weights/Assign"
  op: "Assign"
  input: "Prediction/Conv_1/weights"
  input: "Prediction/Conv_1/weights/Initializer/random_uniform"
  attr {
    key: "T"
    value {
      type: DT_FLOAT
    }
  }
  attr {
    key: "_class"
    value {
      list {
        s: "loc:@Prediction/Conv_1/weights"
      }
    }
  }
  attr {
    key: "_output_shapes"
    value {
      list {
        shape {
          dim {
            size: 3
          }
          dim {
            size: 3
          }
          dim {
            size: 32
          }
          dim {
            size: 32
          }
        }
      }
    }
  }
  attr {
    key: "use_locking"
    value {
      b: true
    }
  }
  attr {
    key: "validate_shape"
    value {
      b: true
    }
  }
}
node {
  name: "Prediction/Conv_1/weights/read"
  op: "Identity"
  input: "Prediction/Conv_1/weights"
  attr {
    key: "T"
    value {
      type: DT_FLOAT
    }
  }
  attr {
    key: "_class"
    value {
      list {
        s: "loc:@Prediction/Conv_1/weights"
      }
    }
  }
  attr {
    key: "_output_shapes"
    value {
      list {
        shape {
          dim {
            size: 3
          }
          dim {
            size: 3
          }
          dim {
            size: 32
          }
          dim {
            size: 32
          }
        }
      }
    }
  }
}
node {
  name: "CNN_prediction/Prediction/Conv_1/kernel/Regularizer/l2_regularizer/scale"
  op: "Const"
  attr {
    key: "_class"
    value {
      list {
        s: "loc:@Prediction/Conv_1/weights"
      }
    }
  }
  attr {
    key: "_output_shapes"
    value {
      list {
        shape {
        }
      }
    }
  }
  attr {
    key: "dtype"
    value {
      type: DT_FLOAT
    }
  }
  attr {
    key: "value"
    value {
      tensor {
        dtype: DT_FLOAT
        tensor_shape {
        }
        float_val: 9.999999747378752e-05
      }
    }
  }
}
node {
  name: "CNN_prediction/Prediction/Conv_1/kernel/Regularizer/l2_regularizer/L2Loss"
  op: "L2Loss"
  input: "Prediction/Conv_1/weights/read"
  attr {
    key: "T"
    value {
      type: DT_FLOAT
    }
  }
  attr {
    key: "_class"
    value {
      list {
        s: "loc:@Prediction/Conv_1/weights"
      }
    }
  }
  attr {
    key: "_output_shapes"
    value {
      list {
        shape {
        }
      }
    }
  }
}
node {
  name: "CNN_prediction/Prediction/Conv_1/kernel/Regularizer/l2_regularizer"
  op: "Mul"
  input: "CNN_prediction/Prediction/Conv_1/kernel/Regularizer/l2_regularizer/scale"
  input: "CNN_prediction/Prediction/Conv_1/kernel/Regularizer/l2_regularizer/L2Loss"
  attr {
    key: "T"
    value {
      type: DT_FLOAT
    }
  }
  attr {
    key: "_class"
    value {
      list {
        s: "loc:@Prediction/Conv_1/weights"
      }
    }
  }
  attr {
    key: "_output_shapes"
    value {
      list {
        shape {
        }
      }
    }
  }
}
node {
  name: "Prediction/Conv_1/biases/Initializer/zeros"
  op: "Const"
  attr {
    key: "_class"
    value {
      list {
        s: "loc:@Prediction/Conv_1/biases"
      }
    }
  }
  attr {
    key: "_output_shapes"
    value {
      list {
        shape {
          dim {
            size: 32
          }
        }
      }
    }
  }
  attr {
    key: "dtype"
    value {
      type: DT_FLOAT
    }
  }
  attr {
    key: "value"
    value {
      tensor {
        dtype: DT_FLOAT
        tensor_shape {
          dim {
            size: 32
          }
        }
        float_val: 0.0
      }
    }
  }
}
node {
  name: "Prediction/Conv_1/biases"
  op: "VariableV2"
  attr {
    key: "_class"
    value {
      list {
        s: "loc:@Prediction/Conv_1/biases"
      }
    }
  }
  attr {
    key: "_output_shapes"
    value {
      list {
        shape {
          dim {
            size: 32
          }
        }
      }
    }
  }
  attr {
    key: "container"
    value {
      s: ""
    }
  }
  attr {
    key: "dtype"
    value {
      type: DT_FLOAT
    }
  }
  attr {
    key: "shape"
    value {
      shape {
        dim {
          size: 32
        }
      }
    }
  }
  attr {
    key: "shared_name"
    value {
      s: ""
    }
  }
}
node {
  name: "Prediction/Conv_1/biases/Assign"
  op: "Assign"
  input: "Prediction/Conv_1/biases"
  input: "Prediction/Conv_1/biases/Initializer/zeros"
  attr {
    key: "T"
    value {
      type: DT_FLOAT
    }
  }
  attr {
    key: "_class"
    value {
      list {
        s: "loc:@Prediction/Conv_1/biases"
      }
    }
  }
  attr {
    key: "_output_shapes"
    value {
      list {
        shape {
          dim {
            size: 32
          }
        }
      }
    }
  }
  attr {
    key: "use_locking"
    value {
      b: true
    }
  }
  attr {
    key: "validate_shape"
    value {
      b: true
    }
  }
}
node {
  name: "Prediction/Conv_1/biases/read"
  op: "Identity"
  input: "Prediction/Conv_1/biases"
  attr {
    key: "T"
    value {
      type: DT_FLOAT
    }
  }
  attr {
    key: "_class"
    value {
      list {
        s: "loc:@Prediction/Conv_1/biases"
      }
    }
  }
  attr {
    key: "_output_shapes"
    value {
      list {
        shape {
          dim {
            size: 32
          }
        }
      }
    }
  }
}
node {
  name: "CNN_prediction/Prediction/Conv_1/convolution/Shape"
  op: "Const"
  attr {
    key: "_output_shapes"
    value {
      list {
        shape {
          dim {
            size: 4
          }
        }
      }
    }
  }
  attr {
    key: "dtype"
    value {
      type: DT_INT32
    }
  }
  attr {
    key: "value"
    value {
      tensor {
        dtype: DT_INT32
        tensor_shape {
          dim {
            size: 4
          }
        }
        tensor_content: "\003\000\000\000\003\000\000\000 \000\000\000 \000\000\000"
      }
    }
  }
}
node {
  name: "CNN_prediction/Prediction/Conv_1/convolution/dilation_rate"
  op: "Const"
  attr {
    key: "_output_shapes"
    value {
      list {
        shape {
          dim {
            size: 2
          }
        }
      }
    }
  }
  attr {
    key: "dtype"
    value {
      type: DT_INT32
    }
  }
  attr {
    key: "value"
    value {
      tensor {
        dtype: DT_INT32
        tensor_shape {
          dim {
            size: 2
          }
        }
        tensor_content: "\001\000\000\000\001\000\000\000"
      }
    }
  }
}
node {
  name: "CNN_prediction/Prediction/Conv_1/convolution"
  op: "Conv2D"
  input: "CNN_prediction/Prediction/Relu"
  input: "Prediction/Conv_1/weights/read"
  attr {
    key: "T"
    value {
      type: DT_FLOAT
    }
  }
  attr {
    key: "_output_shapes"
    value {
      list {
        shape {
          dim {
            size: -1
          }
          dim {
            size: 25
          }
          dim {
            size: 25
          }
          dim {
            size: 32
          }
        }
      }
    }
  }
  attr {
    key: "data_format"
    value {
      s: "NHWC"
    }
  }
  attr {
    key: "padding"
    value {
      s: "SAME"
    }
  }
  attr {
    key: "strides"
    value {
      list {
        i: 1
        i: 2
        i: 2
        i: 1
      }
    }
  }
  attr {
    key: "use_cudnn_on_gpu"
    value {
      b: true
    }
  }
}
node {
  name: "CNN_prediction/Prediction/Conv_1/BiasAdd"
  op: "BiasAdd"
  input: "CNN_prediction/Prediction/Conv_1/convolution"
  input: "Prediction/Conv_1/biases/read"
  attr {
    key: "T"
    value {
      type: DT_FLOAT
    }
  }
  attr {
    key: "_output_shapes"
    value {
      list {
        shape {
          dim {
            size: -1
          }
          dim {
            size: 25
          }
          dim {
            size: 25
          }
          dim {
            size: 32
          }
        }
      }
    }
  }
  attr {
    key: "data_format"
    value {
      s: "NHWC"
    }
  }
}
node {
  name: "CNN_prediction/Prediction/Conv_1/Relu"
  op: "Relu"
  input: "CNN_prediction/Prediction/Conv_1/BiasAdd"
  attr {
    key: "T"
    value {
      type: DT_FLOAT
    }
  }
  attr {
    key: "_output_shapes"
    value {
      list {
        shape {
          dim {
            size: -1
          }
          dim {
            size: 25
          }
          dim {
            size: 25
          }
          dim {
            size: 32
          }
        }
      }
    }
  }
}
node {
  name: "Prediction/Conv_2/weights/Initializer/random_uniform/shape"
  op: "Const"
  attr {
    key: "_class"
    value {
      list {
        s: "loc:@Prediction/Conv_2/weights"
      }
    }
  }
  attr {
    key: "_output_shapes"
    value {
      list {
        shape {
          dim {
            size: 4
          }
        }
      }
    }
  }
  attr {
    key: "dtype"
    value {
      type: DT_INT32
    }
  }
  attr {
    key: "value"
    value {
      tensor {
        dtype: DT_INT32
        tensor_shape {
          dim {
            size: 4
          }
        }
        tensor_content: "\003\000\000\000\003\000\000\000 \000\000\000 \000\000\000"
      }
    }
  }
}
node {
  name: "Prediction/Conv_2/weights/Initializer/random_uniform/min"
  op: "Const"
  attr {
    key: "_class"
    value {
      list {
        s: "loc:@Prediction/Conv_2/weights"
      }
    }
  }
  attr {
    key: "_output_shapes"
    value {
      list {
        shape {
        }
      }
    }
  }
  attr {
    key: "dtype"
    value {
      type: DT_FLOAT
    }
  }
  attr {
    key: "value"
    value {
      tensor {
        dtype: DT_FLOAT
        tensor_shape {
        }
        float_val: -0.10206207633018494
      }
    }
  }
}
node {
  name: "Prediction/Conv_2/weights/Initializer/random_uniform/max"
  op: "Const"
  attr {
    key: "_class"
    value {
      list {
        s: "loc:@Prediction/Conv_2/weights"
      }
    }
  }
  attr {
    key: "_output_shapes"
    value {
      list {
        shape {
        }
      }
    }
  }
  attr {
    key: "dtype"
    value {
      type: DT_FLOAT
    }
  }
  attr {
    key: "value"
    value {
      tensor {
        dtype: DT_FLOAT
        tensor_shape {
        }
        float_val: 0.10206207633018494
      }
    }
  }
}
node {
  name: "Prediction/Conv_2/weights/Initializer/random_uniform/RandomUniform"
  op: "RandomUniform"
  input: "Prediction/Conv_2/weights/Initializer/random_uniform/shape"
  attr {
    key: "T"
    value {
      type: DT_INT32
    }
  }
  attr {
    key: "_class"
    value {
      list {
        s: "loc:@Prediction/Conv_2/weights"
      }
    }
  }
  attr {
    key: "_output_shapes"
    value {
      list {
        shape {
          dim {
            size: 3
          }
          dim {
            size: 3
          }
          dim {
            size: 32
          }
          dim {
            size: 32
          }
        }
      }
    }
  }
  attr {
    key: "dtype"
    value {
      type: DT_FLOAT
    }
  }
  attr {
    key: "seed"
    value {
      i: 8964
    }
  }
  attr {
    key: "seed2"
    value {
      i: 64
    }
  }
}
node {
  name: "Prediction/Conv_2/weights/Initializer/random_uniform/sub"
  op: "Sub"
  input: "Prediction/Conv_2/weights/Initializer/random_uniform/max"
  input: "Prediction/Conv_2/weights/Initializer/random_uniform/min"
  attr {
    key: "T"
    value {
      type: DT_FLOAT
    }
  }
  attr {
    key: "_class"
    value {
      list {
        s: "loc:@Prediction/Conv_2/weights"
      }
    }
  }
  attr {
    key: "_output_shapes"
    value {
      list {
        shape {
        }
      }
    }
  }
}
node {
  name: "Prediction/Conv_2/weights/Initializer/random_uniform/mul"
  op: "Mul"
  input: "Prediction/Conv_2/weights/Initializer/random_uniform/RandomUniform"
  input: "Prediction/Conv_2/weights/Initializer/random_uniform/sub"
  attr {
    key: "T"
    value {
      type: DT_FLOAT
    }
  }
  attr {
    key: "_class"
    value {
      list {
        s: "loc:@Prediction/Conv_2/weights"
      }
    }
  }
  attr {
    key: "_output_shapes"
    value {
      list {
        shape {
          dim {
            size: 3
          }
          dim {
            size: 3
          }
          dim {
            size: 32
          }
          dim {
            size: 32
          }
        }
      }
    }
  }
}
node {
  name: "Prediction/Conv_2/weights/Initializer/random_uniform"
  op: "Add"
  input: "Prediction/Conv_2/weights/Initializer/random_uniform/mul"
  input: "Prediction/Conv_2/weights/Initializer/random_uniform/min"
  attr {
    key: "T"
    value {
      type: DT_FLOAT
    }
  }
  attr {
    key: "_class"
    value {
      list {
        s: "loc:@Prediction/Conv_2/weights"
      }
    }
  }
  attr {
    key: "_output_shapes"
    value {
      list {
        shape {
          dim {
            size: 3
          }
          dim {
            size: 3
          }
          dim {
            size: 32
          }
          dim {
            size: 32
          }
        }
      }
    }
  }
}
node {
  name: "Prediction/Conv_2/weights"
  op: "VariableV2"
  attr {
    key: "_class"
    value {
      list {
        s: "loc:@Prediction/Conv_2/weights"
      }
    }
  }
  attr {
    key: "_output_shapes"
    value {
      list {
        shape {
          dim {
            size: 3
          }
          dim {
            size: 3
          }
          dim {
            size: 32
          }
          dim {
            size: 32
          }
        }
      }
    }
  }
  attr {
    key: "container"
    value {
      s: ""
    }
  }
  attr {
    key: "dtype"
    value {
      type: DT_FLOAT
    }
  }
  attr {
    key: "shape"
    value {
      shape {
        dim {
          size: 3
        }
        dim {
          size: 3
        }
        dim {
          size: 32
        }
        dim {
          size: 32
        }
      }
    }
  }
  attr {
    key: "shared_name"
    value {
      s: ""
    }
  }
}
node {
  name: "Prediction/Conv_2/weights/Assign"
  op: "Assign"
  input: "Prediction/Conv_2/weights"
  input: "Prediction/Conv_2/weights/Initializer/random_uniform"
  attr {
    key: "T"
    value {
      type: DT_FLOAT
    }
  }
  attr {
    key: "_class"
    value {
      list {
        s: "loc:@Prediction/Conv_2/weights"
      }
    }
  }
  attr {
    key: "_output_shapes"
    value {
      list {
        shape {
          dim {
            size: 3
          }
          dim {
            size: 3
          }
          dim {
            size: 32
          }
          dim {
            size: 32
          }
        }
      }
    }
  }
  attr {
    key: "use_locking"
    value {
      b: true
    }
  }
  attr {
    key: "validate_shape"
    value {
      b: true
    }
  }
}
node {
  name: "Prediction/Conv_2/weights/read"
  op: "Identity"
  input: "Prediction/Conv_2/weights"
  attr {
    key: "T"
    value {
      type: DT_FLOAT
    }
  }
  attr {
    key: "_class"
    value {
      list {
        s: "loc:@Prediction/Conv_2/weights"
      }
    }
  }
  attr {
    key: "_output_shapes"
    value {
      list {
        shape {
          dim {
            size: 3
          }
          dim {
            size: 3
          }
          dim {
            size: 32
          }
          dim {
            size: 32
          }
        }
      }
    }
  }
}
node {
  name: "CNN_prediction/Prediction/Conv_2/kernel/Regularizer/l2_regularizer/scale"
  op: "Const"
  attr {
    key: "_class"
    value {
      list {
        s: "loc:@Prediction/Conv_2/weights"
      }
    }
  }
  attr {
    key: "_output_shapes"
    value {
      list {
        shape {
        }
      }
    }
  }
  attr {
    key: "dtype"
    value {
      type: DT_FLOAT
    }
  }
  attr {
    key: "value"
    value {
      tensor {
        dtype: DT_FLOAT
        tensor_shape {
        }
        float_val: 9.999999747378752e-05
      }
    }
  }
}
node {
  name: "CNN_prediction/Prediction/Conv_2/kernel/Regularizer/l2_regularizer/L2Loss"
  op: "L2Loss"
  input: "Prediction/Conv_2/weights/read"
  attr {
    key: "T"
    value {
      type: DT_FLOAT
    }
  }
  attr {
    key: "_class"
    value {
      list {
        s: "loc:@Prediction/Conv_2/weights"
      }
    }
  }
  attr {
    key: "_output_shapes"
    value {
      list {
        shape {
        }
      }
    }
  }
}
node {
  name: "CNN_prediction/Prediction/Conv_2/kernel/Regularizer/l2_regularizer"
  op: "Mul"
  input: "CNN_prediction/Prediction/Conv_2/kernel/Regularizer/l2_regularizer/scale"
  input: "CNN_prediction/Prediction/Conv_2/kernel/Regularizer/l2_regularizer/L2Loss"
  attr {
    key: "T"
    value {
      type: DT_FLOAT
    }
  }
  attr {
    key: "_class"
    value {
      list {
        s: "loc:@Prediction/Conv_2/weights"
      }
    }
  }
  attr {
    key: "_output_shapes"
    value {
      list {
        shape {
        }
      }
    }
  }
}
node {
  name: "Prediction/Conv_2/biases/Initializer/zeros"
  op: "Const"
  attr {
    key: "_class"
    value {
      list {
        s: "loc:@Prediction/Conv_2/biases"
      }
    }
  }
  attr {
    key: "_output_shapes"
    value {
      list {
        shape {
          dim {
            size: 32
          }
        }
      }
    }
  }
  attr {
    key: "dtype"
    value {
      type: DT_FLOAT
    }
  }
  attr {
    key: "value"
    value {
      tensor {
        dtype: DT_FLOAT
        tensor_shape {
          dim {
            size: 32
          }
        }
        float_val: 0.0
      }
    }
  }
}
node {
  name: "Prediction/Conv_2/biases"
  op: "VariableV2"
  attr {
    key: "_class"
    value {
      list {
        s: "loc:@Prediction/Conv_2/biases"
      }
    }
  }
  attr {
    key: "_output_shapes"
    value {
      list {
        shape {
          dim {
            size: 32
          }
        }
      }
    }
  }
  attr {
    key: "container"
    value {
      s: ""
    }
  }
  attr {
    key: "dtype"
    value {
      type: DT_FLOAT
    }
  }
  attr {
    key: "shape"
    value {
      shape {
        dim {
          size: 32
        }
      }
    }
  }
  attr {
    key: "shared_name"
    value {
      s: ""
    }
  }
}
node {
  name: "Prediction/Conv_2/biases/Assign"
  op: "Assign"
  input: "Prediction/Conv_2/biases"
  input: "Prediction/Conv_2/biases/Initializer/zeros"
  attr {
    key: "T"
    value {
      type: DT_FLOAT
    }
  }
  attr {
    key: "_class"
    value {
      list {
        s: "loc:@Prediction/Conv_2/biases"
      }
    }
  }
  attr {
    key: "_output_shapes"
    value {
      list {
        shape {
          dim {
            size: 32
          }
        }
      }
    }
  }
  attr {
    key: "use_locking"
    value {
      b: true
    }
  }
  attr {
    key: "validate_shape"
    value {
      b: true
    }
  }
}
node {
  name: "Prediction/Conv_2/biases/read"
  op: "Identity"
  input: "Prediction/Conv_2/biases"
  attr {
    key: "T"
    value {
      type: DT_FLOAT
    }
  }
  attr {
    key: "_class"
    value {
      list {
        s: "loc:@Prediction/Conv_2/biases"
      }
    }
  }
  attr {
    key: "_output_shapes"
    value {
      list {
        shape {
          dim {
            size: 32
          }
        }
      }
    }
  }
}
node {
  name: "CNN_prediction/Prediction/Conv_2/convolution/Shape"
  op: "Const"
  attr {
    key: "_output_shapes"
    value {
      list {
        shape {
          dim {
            size: 4
          }
        }
      }
    }
  }
  attr {
    key: "dtype"
    value {
      type: DT_INT32
    }
  }
  attr {
    key: "value"
    value {
      tensor {
        dtype: DT_INT32
        tensor_shape {
          dim {
            size: 4
          }
        }
        tensor_content: "\003\000\000\000\003\000\000\000 \000\000\000 \000\000\000"
      }
    }
  }
}
node {
  name: "CNN_prediction/Prediction/Conv_2/convolution/dilation_rate"
  op: "Const"
  attr {
    key: "_output_shapes"
    value {
      list {
        shape {
          dim {
            size: 2
          }
        }
      }
    }
  }
  attr {
    key: "dtype"
    value {
      type: DT_INT32
    }
  }
  attr {
    key: "value"
    value {
      tensor {
        dtype: DT_INT32
        tensor_shape {
          dim {
            size: 2
          }
        }
        tensor_content: "\001\000\000\000\001\000\000\000"
      }
    }
  }
}
node {
  name: "CNN_prediction/Prediction/Conv_2/convolution"
  op: "Conv2D"
  input: "CNN_prediction/Prediction/Conv_1/Relu"
  input: "Prediction/Conv_2/weights/read"
  attr {
    key: "T"
    value {
      type: DT_FLOAT
    }
  }
  attr {
    key: "_output_shapes"
    value {
      list {
        shape {
          dim {
            size: -1
          }
          dim {
            size: 25
          }
          dim {
            size: 25
          }
          dim {
            size: 32
          }
        }
      }
    }
  }
  attr {
    key: "data_format"
    value {
      s: "NHWC"
    }
  }
  attr {
    key: "padding"
    value {
      s: "SAME"
    }
  }
  attr {
    key: "strides"
    value {
      list {
        i: 1
        i: 1
        i: 1
        i: 1
      }
    }
  }
  attr {
    key: "use_cudnn_on_gpu"
    value {
      b: true
    }
  }
}
node {
  name: "CNN_prediction/Prediction/Conv_2/BiasAdd"
  op: "BiasAdd"
  input: "CNN_prediction/Prediction/Conv_2/convolution"
  input: "Prediction/Conv_2/biases/read"
  attr {
    key: "T"
    value {
      type: DT_FLOAT
    }
  }
  attr {
    key: "_output_shapes"
    value {
      list {
        shape {
          dim {
            size: -1
          }
          dim {
            size: 25
          }
          dim {
            size: 25
          }
          dim {
            size: 32
          }
        }
      }
    }
  }
  attr {
    key: "data_format"
    value {
      s: "NHWC"
    }
  }
}
node {
  name: "CNN_prediction/Prediction/Conv_2/Relu"
  op: "Relu"
  input: "CNN_prediction/Prediction/Conv_2/BiasAdd"
  attr {
    key: "T"
    value {
      type: DT_FLOAT
    }
  }
  attr {
    key: "_output_shapes"
    value {
      list {
        shape {
          dim {
            size: -1
          }
          dim {
            size: 25
          }
          dim {
            size: 25
          }
          dim {
            size: 32
          }
        }
      }
    }
  }
}
node {
  name: "Prediction/Conv_3/weights/Initializer/random_uniform/shape"
  op: "Const"
  attr {
    key: "_class"
    value {
      list {
        s: "loc:@Prediction/Conv_3/weights"
      }
    }
  }
  attr {
    key: "_output_shapes"
    value {
      list {
        shape {
          dim {
            size: 4
          }
        }
      }
    }
  }
  attr {
    key: "dtype"
    value {
      type: DT_INT32
    }
  }
  attr {
    key: "value"
    value {
      tensor {
        dtype: DT_INT32
        tensor_shape {
          dim {
            size: 4
          }
        }
        tensor_content: "\001\000\000\000\001\000\000\000 \000\000\000 \000\000\000"
      }
    }
  }
}
node {
  name: "Prediction/Conv_3/weights/Initializer/random_uniform/min"
  op: "Const"
  attr {
    key: "_class"
    value {
      list {
        s: "loc:@Prediction/Conv_3/weights"
      }
    }
  }
  attr {
    key: "_output_shapes"
    value {
      list {
        shape {
        }
      }
    }
  }
  attr {
    key: "dtype"
    value {
      type: DT_FLOAT
    }
  }
  attr {
    key: "value"
    value {
      tensor {
        dtype: DT_FLOAT
        tensor_shape {
        }
        float_val: -0.3061862289905548
      }
    }
  }
}
node {
  name: "Prediction/Conv_3/weights/Initializer/random_uniform/max"
  op: "Const"
  attr {
    key: "_class"
    value {
      list {
        s: "loc:@Prediction/Conv_3/weights"
      }
    }
  }
  attr {
    key: "_output_shapes"
    value {
      list {
        shape {
        }
      }
    }
  }
  attr {
    key: "dtype"
    value {
      type: DT_FLOAT
    }
  }
  attr {
    key: "value"
    value {
      tensor {
        dtype: DT_FLOAT
        tensor_shape {
        }
        float_val: 0.3061862289905548
      }
    }
  }
}
node {
  name: "Prediction/Conv_3/weights/Initializer/random_uniform/RandomUniform"
  op: "RandomUniform"
  input: "Prediction/Conv_3/weights/Initializer/random_uniform/shape"
  attr {
    key: "T"
    value {
      type: DT_INT32
    }
  }
  attr {
    key: "_class"
    value {
      list {
        s: "loc:@Prediction/Conv_3/weights"
      }
    }
  }
  attr {
    key: "_output_shapes"
    value {
      list {
        shape {
          dim {
            size: 1
          }
          dim {
            size: 1
          }
          dim {
            size: 32
          }
          dim {
            size: 32
          }
        }
      }
    }
  }
  attr {
    key: "dtype"
    value {
      type: DT_FLOAT
    }
  }
  attr {
    key: "seed"
    value {
      i: 8964
    }
  }
  attr {
    key: "seed2"
    value {
      i: 86
    }
  }
}
node {
  name: "Prediction/Conv_3/weights/Initializer/random_uniform/sub"
  op: "Sub"
  input: "Prediction/Conv_3/weights/Initializer/random_uniform/max"
  input: "Prediction/Conv_3/weights/Initializer/random_uniform/min"
  attr {
    key: "T"
    value {
      type: DT_FLOAT
    }
  }
  attr {
    key: "_class"
    value {
      list {
        s: "loc:@Prediction/Conv_3/weights"
      }
    }
  }
  attr {
    key: "_output_shapes"
    value {
      list {
        shape {
        }
      }
    }
  }
}
node {
  name: "Prediction/Conv_3/weights/Initializer/random_uniform/mul"
  op: "Mul"
  input: "Prediction/Conv_3/weights/Initializer/random_uniform/RandomUniform"
  input: "Prediction/Conv_3/weights/Initializer/random_uniform/sub"
  attr {
    key: "T"
    value {
      type: DT_FLOAT
    }
  }
  attr {
    key: "_class"
    value {
      list {
        s: "loc:@Prediction/Conv_3/weights"
      }
    }
  }
  attr {
    key: "_output_shapes"
    value {
      list {
        shape {
          dim {
            size: 1
          }
          dim {
            size: 1
          }
          dim {
            size: 32
          }
          dim {
            size: 32
          }
        }
      }
    }
  }
}
node {
  name: "Prediction/Conv_3/weights/Initializer/random_uniform"
  op: "Add"
  input: "Prediction/Conv_3/weights/Initializer/random_uniform/mul"
  input: "Prediction/Conv_3/weights/Initializer/random_uniform/min"
  attr {
    key: "T"
    value {
      type: DT_FLOAT
    }
  }
  attr {
    key: "_class"
    value {
      list {
        s: "loc:@Prediction/Conv_3/weights"
      }
    }
  }
  attr {
    key: "_output_shapes"
    value {
      list {
        shape {
          dim {
            size: 1
          }
          dim {
            size: 1
          }
          dim {
            size: 32
          }
          dim {
            size: 32
          }
        }
      }
    }
  }
}
node {
  name: "Prediction/Conv_3/weights"
  op: "VariableV2"
  attr {
    key: "_class"
    value {
      list {
        s: "loc:@Prediction/Conv_3/weights"
      }
    }
  }
  attr {
    key: "_output_shapes"
    value {
      list {
        shape {
          dim {
            size: 1
          }
          dim {
            size: 1
          }
          dim {
            size: 32
          }
          dim {
            size: 32
          }
        }
      }
    }
  }
  attr {
    key: "container"
    value {
      s: ""
    }
  }
  attr {
    key: "dtype"
    value {
      type: DT_FLOAT
    }
  }
  attr {
    key: "shape"
    value {
      shape {
        dim {
          size: 1
        }
        dim {
          size: 1
        }
        dim {
          size: 32
        }
        dim {
          size: 32
        }
      }
    }
  }
  attr {
    key: "shared_name"
    value {
      s: ""
    }
  }
}
node {
  name: "Prediction/Conv_3/weights/Assign"
  op: "Assign"
  input: "Prediction/Conv_3/weights"
  input: "Prediction/Conv_3/weights/Initializer/random_uniform"
  attr {
    key: "T"
    value {
      type: DT_FLOAT
    }
  }
  attr {
    key: "_class"
    value {
      list {
        s: "loc:@Prediction/Conv_3/weights"
      }
    }
  }
  attr {
    key: "_output_shapes"
    value {
      list {
        shape {
          dim {
            size: 1
          }
          dim {
            size: 1
          }
          dim {
            size: 32
          }
          dim {
            size: 32
          }
        }
      }
    }
  }
  attr {
    key: "use_locking"
    value {
      b: true
    }
  }
  attr {
    key: "validate_shape"
    value {
      b: true
    }
  }
}
node {
  name: "Prediction/Conv_3/weights/read"
  op: "Identity"
  input: "Prediction/Conv_3/weights"
  attr {
    key: "T"
    value {
      type: DT_FLOAT
    }
  }
  attr {
    key: "_class"
    value {
      list {
        s: "loc:@Prediction/Conv_3/weights"
      }
    }
  }
  attr {
    key: "_output_shapes"
    value {
      list {
        shape {
          dim {
            size: 1
          }
          dim {
            size: 1
          }
          dim {
            size: 32
          }
          dim {
            size: 32
          }
        }
      }
    }
  }
}
node {
  name: "Prediction/Conv_3/biases/Initializer/zeros"
  op: "Const"
  attr {
    key: "_class"
    value {
      list {
        s: "loc:@Prediction/Conv_3/biases"
      }
    }
  }
  attr {
    key: "_output_shapes"
    value {
      list {
        shape {
          dim {
            size: 32
          }
        }
      }
    }
  }
  attr {
    key: "dtype"
    value {
      type: DT_FLOAT
    }
  }
  attr {
    key: "value"
    value {
      tensor {
        dtype: DT_FLOAT
        tensor_shape {
          dim {
            size: 32
          }
        }
        float_val: 0.0
      }
    }
  }
}
node {
  name: "Prediction/Conv_3/biases"
  op: "VariableV2"
  attr {
    key: "_class"
    value {
      list {
        s: "loc:@Prediction/Conv_3/biases"
      }
    }
  }
  attr {
    key: "_output_shapes"
    value {
      list {
        shape {
          dim {
            size: 32
          }
        }
      }
    }
  }
  attr {
    key: "container"
    value {
      s: ""
    }
  }
  attr {
    key: "dtype"
    value {
      type: DT_FLOAT
    }
  }
  attr {
    key: "shape"
    value {
      shape {
        dim {
          size: 32
        }
      }
    }
  }
  attr {
    key: "shared_name"
    value {
      s: ""
    }
  }
}
node {
  name: "Prediction/Conv_3/biases/Assign"
  op: "Assign"
  input: "Prediction/Conv_3/biases"
  input: "Prediction/Conv_3/biases/Initializer/zeros"
  attr {
    key: "T"
    value {
      type: DT_FLOAT
    }
  }
  attr {
    key: "_class"
    value {
      list {
        s: "loc:@Prediction/Conv_3/biases"
      }
    }
  }
  attr {
    key: "_output_shapes"
    value {
      list {
        shape {
          dim {
            size: 32
          }
        }
      }
    }
  }
  attr {
    key: "use_locking"
    value {
      b: true
    }
  }
  attr {
    key: "validate_shape"
    value {
      b: true
    }
  }
}
node {
  name: "Prediction/Conv_3/biases/read"
  op: "Identity"
  input: "Prediction/Conv_3/biases"
  attr {
    key: "T"
    value {
      type: DT_FLOAT
    }
  }
  attr {
    key: "_class"
    value {
      list {
        s: "loc:@Prediction/Conv_3/biases"
      }
    }
  }
  attr {
    key: "_output_shapes"
    value {
      list {
        shape {
          dim {
            size: 32
          }
        }
      }
    }
  }
}
node {
  name: "CNN_prediction/Prediction/Conv_3/convolution/Shape"
  op: "Const"
  attr {
    key: "_output_shapes"
    value {
      list {
        shape {
          dim {
            size: 4
          }
        }
      }
    }
  }
  attr {
    key: "dtype"
    value {
      type: DT_INT32
    }
  }
  attr {
    key: "value"
    value {
      tensor {
        dtype: DT_INT32
        tensor_shape {
          dim {
            size: 4
          }
        }
        tensor_content: "\001\000\000\000\001\000\000\000 \000\000\000 \000\000\000"
      }
    }
  }
}
node {
  name: "CNN_prediction/Prediction/Conv_3/convolution/dilation_rate"
  op: "Const"
  attr {
    key: "_output_shapes"
    value {
      list {
        shape {
          dim {
            size: 2
          }
        }
      }
    }
  }
  attr {
    key: "dtype"
    value {
      type: DT_INT32
    }
  }
  attr {
    key: "value"
    value {
      tensor {
        dtype: DT_INT32
        tensor_shape {
          dim {
            size: 2
          }
        }
        tensor_content: "\001\000\000\000\001\000\000\000"
      }
    }
  }
}
node {
  name: "CNN_prediction/Prediction/Conv_3/convolution"
  op: "Conv2D"
  input: "CNN_prediction/Prediction/MaxPool2D/MaxPool"
  input: "Prediction/Conv_3/weights/read"
  attr {
    key: "T"
    value {
      type: DT_FLOAT
    }
  }
  attr {
    key: "_output_shapes"
    value {
      list {
        shape {
          dim {
            size: -1
          }
          dim {
            size: 25
          }
          dim {
            size: 25
          }
          dim {
            size: 32
          }
        }
      }
    }
  }
  attr {
    key: "data_format"
    value {
      s: "NHWC"
    }
  }
  attr {
    key: "padding"
    value {
      s: "SAME"
    }
  }
  attr {
    key: "strides"
    value {
      list {
        i: 1
        i: 2
        i: 2
        i: 1
      }
    }
  }
  attr {
    key: "use_cudnn_on_gpu"
    value {
      b: true
    }
  }
}
node {
  name: "CNN_prediction/Prediction/Conv_3/BiasAdd"
  op: "BiasAdd"
  input: "CNN_prediction/Prediction/Conv_3/convolution"
  input: "Prediction/Conv_3/biases/read"
  attr {
    key: "T"
    value {
      type: DT_FLOAT
    }
  }
  attr {
    key: "_output_shapes"
    value {
      list {
        shape {
          dim {
            size: -1
          }
          dim {
            size: 25
          }
          dim {
            size: 25
          }
          dim {
            size: 32
          }
        }
      }
    }
  }
  attr {
    key: "data_format"
    value {
      s: "NHWC"
    }
  }
}
node {
  name: "CNN_prediction/Prediction/Conv_3/Relu"
  op: "Relu"
  input: "CNN_prediction/Prediction/Conv_3/BiasAdd"
  attr {
    key: "T"
    value {
      type: DT_FLOAT
    }
  }
  attr {
    key: "_output_shapes"
    value {
      list {
        shape {
          dim {
            size: -1
          }
          dim {
            size: 25
          }
          dim {
            size: 25
          }
          dim {
            size: 32
          }
        }
      }
    }
  }
}
node {
  name: "CNN_prediction/Prediction/add"
  op: "Add"
  input: "CNN_prediction/Prediction/Conv_2/Relu"
  input: "CNN_prediction/Prediction/Conv_3/Relu"
  attr {
    key: "T"
    value {
      type: DT_FLOAT
    }
  }
  attr {
    key: "_output_shapes"
    value {
      list {
        shape {
          dim {
            size: -1
          }
          dim {
            size: 25
          }
          dim {
            size: 25
          }
          dim {
            size: 32
          }
        }
      }
    }
  }
}
node {
  name: "CNN_prediction/Prediction/Relu_1"
  op: "Relu"
  input: "CNN_prediction/Prediction/add"
  attr {
    key: "T"
    value {
      type: DT_FLOAT
    }
  }
  attr {
    key: "_output_shapes"
    value {
      list {
        shape {
          dim {
            size: -1
          }
          dim {
            size: 25
          }
          dim {
            size: 25
          }
          dim {
            size: 32
          }
        }
      }
    }
  }
}
node {
  name: "Prediction/Conv_4/weights/Initializer/random_uniform/shape"
  op: "Const"
  attr {
    key: "_class"
    value {
      list {
        s: "loc:@Prediction/Conv_4/weights"
      }
    }
  }
  attr {
    key: "_output_shapes"
    value {
      list {
        shape {
          dim {
            size: 4
          }
        }
      }
    }
  }
  attr {
    key: "dtype"
    value {
      type: DT_INT32
    }
  }
  attr {
    key: "value"
    value {
      tensor {
        dtype: DT_INT32
        tensor_shape {
          dim {
            size: 4
          }
        }
        tensor_content: "\003\000\000\000\003\000\000\000 \000\000\000@\000\000\000"
      }
    }
  }
}
node {
  name: "Prediction/Conv_4/weights/Initializer/random_uniform/min"
  op: "Const"
  attr {
    key: "_class"
    value {
      list {
        s: "loc:@Prediction/Conv_4/weights"
      }
    }
  }
  attr {
    key: "_output_shapes"
    value {
      list {
        shape {
        }
      }
    }
  }
  attr {
    key: "dtype"
    value {
      type: DT_FLOAT
    }
  }
  attr {
    key: "value"
    value {
      tensor {
        dtype: DT_FLOAT
        tensor_shape {
        }
        float_val: -0.0833333358168602
      }
    }
  }
}
node {
  name: "Prediction/Conv_4/weights/Initializer/random_uniform/max"
  op: "Const"
  attr {
    key: "_class"
    value {
      list {
        s: "loc:@Prediction/Conv_4/weights"
      }
    }
  }
  attr {
    key: "_output_shapes"
    value {
      list {
        shape {
        }
      }
    }
  }
  attr {
    key: "dtype"
    value {
      type: DT_FLOAT
    }
  }
  attr {
    key: "value"
    value {
      tensor {
        dtype: DT_FLOAT
        tensor_shape {
        }
        float_val: 0.0833333358168602
      }
    }
  }
}
node {
  name: "Prediction/Conv_4/weights/Initializer/random_uniform/RandomUniform"
  op: "RandomUniform"
  input: "Prediction/Conv_4/weights/Initializer/random_uniform/shape"
  attr {
    key: "T"
    value {
      type: DT_INT32
    }
  }
  attr {
    key: "_class"
    value {
      list {
        s: "loc:@Prediction/Conv_4/weights"
      }
    }
  }
  attr {
    key: "_output_shapes"
    value {
      list {
        shape {
          dim {
            size: 3
          }
          dim {
            size: 3
          }
          dim {
            size: 32
          }
          dim {
            size: 64
          }
        }
      }
    }
  }
  attr {
    key: "dtype"
    value {
      type: DT_FLOAT
    }
  }
  attr {
    key: "seed"
    value {
      i: 8964
    }
  }
  attr {
    key: "seed2"
    value {
      i: 107
    }
  }
}
node {
  name: "Prediction/Conv_4/weights/Initializer/random_uniform/sub"
  op: "Sub"
  input: "Prediction/Conv_4/weights/Initializer/random_uniform/max"
  input: "Prediction/Conv_4/weights/Initializer/random_uniform/min"
  attr {
    key: "T"
    value {
      type: DT_FLOAT
    }
  }
  attr {
    key: "_class"
    value {
      list {
        s: "loc:@Prediction/Conv_4/weights"
      }
    }
  }
  attr {
    key: "_output_shapes"
    value {
      list {
        shape {
        }
      }
    }
  }
}
node {
  name: "Prediction/Conv_4/weights/Initializer/random_uniform/mul"
  op: "Mul"
  input: "Prediction/Conv_4/weights/Initializer/random_uniform/RandomUniform"
  input: "Prediction/Conv_4/weights/Initializer/random_uniform/sub"
  attr {
    key: "T"
    value {
      type: DT_FLOAT
    }
  }
  attr {
    key: "_class"
    value {
      list {
        s: "loc:@Prediction/Conv_4/weights"
      }
    }
  }
  attr {
    key: "_output_shapes"
    value {
      list {
        shape {
          dim {
            size: 3
          }
          dim {
            size: 3
          }
          dim {
            size: 32
          }
          dim {
            size: 64
          }
        }
      }
    }
  }
}
node {
  name: "Prediction/Conv_4/weights/Initializer/random_uniform"
  op: "Add"
  input: "Prediction/Conv_4/weights/Initializer/random_uniform/mul"
  input: "Prediction/Conv_4/weights/Initializer/random_uniform/min"
  attr {
    key: "T"
    value {
      type: DT_FLOAT
    }
  }
  attr {
    key: "_class"
    value {
      list {
        s: "loc:@Prediction/Conv_4/weights"
      }
    }
  }
  attr {
    key: "_output_shapes"
    value {
      list {
        shape {
          dim {
            size: 3
          }
          dim {
            size: 3
          }
          dim {
            size: 32
          }
          dim {
            size: 64
          }
        }
      }
    }
  }
}
node {
  name: "Prediction/Conv_4/weights"
  op: "VariableV2"
  attr {
    key: "_class"
    value {
      list {
        s: "loc:@Prediction/Conv_4/weights"
      }
    }
  }
  attr {
    key: "_output_shapes"
    value {
      list {
        shape {
          dim {
            size: 3
          }
          dim {
            size: 3
          }
          dim {
            size: 32
          }
          dim {
            size: 64
          }
        }
      }
    }
  }
  attr {
    key: "container"
    value {
      s: ""
    }
  }
  attr {
    key: "dtype"
    value {
      type: DT_FLOAT
    }
  }
  attr {
    key: "shape"
    value {
      shape {
        dim {
          size: 3
        }
        dim {
          size: 3
        }
        dim {
          size: 32
        }
        dim {
          size: 64
        }
      }
    }
  }
  attr {
    key: "shared_name"
    value {
      s: ""
    }
  }
}
node {
  name: "Prediction/Conv_4/weights/Assign"
  op: "Assign"
  input: "Prediction/Conv_4/weights"
  input: "Prediction/Conv_4/weights/Initializer/random_uniform"
  attr {
    key: "T"
    value {
      type: DT_FLOAT
    }
  }
  attr {
    key: "_class"
    value {
      list {
        s: "loc:@Prediction/Conv_4/weights"
      }
    }
  }
  attr {
    key: "_output_shapes"
    value {
      list {
        shape {
          dim {
            size: 3
          }
          dim {
            size: 3
          }
          dim {
            size: 32
          }
          dim {
            size: 64
          }
        }
      }
    }
  }
  attr {
    key: "use_locking"
    value {
      b: true
    }
  }
  attr {
    key: "validate_shape"
    value {
      b: true
    }
  }
}
node {
  name: "Prediction/Conv_4/weights/read"
  op: "Identity"
  input: "Prediction/Conv_4/weights"
  attr {
    key: "T"
    value {
      type: DT_FLOAT
    }
  }
  attr {
    key: "_class"
    value {
      list {
        s: "loc:@Prediction/Conv_4/weights"
      }
    }
  }
  attr {
    key: "_output_shapes"
    value {
      list {
        shape {
          dim {
            size: 3
          }
          dim {
            size: 3
          }
          dim {
            size: 32
          }
          dim {
            size: 64
          }
        }
      }
    }
  }
}
node {
  name: "CNN_prediction/Prediction/Conv_4/kernel/Regularizer/l2_regularizer/scale"
  op: "Const"
  attr {
    key: "_class"
    value {
      list {
        s: "loc:@Prediction/Conv_4/weights"
      }
    }
  }
  attr {
    key: "_output_shapes"
    value {
      list {
        shape {
        }
      }
    }
  }
  attr {
    key: "dtype"
    value {
      type: DT_FLOAT
    }
  }
  attr {
    key: "value"
    value {
      tensor {
        dtype: DT_FLOAT
        tensor_shape {
        }
        float_val: 9.999999747378752e-05
      }
    }
  }
}
node {
  name: "CNN_prediction/Prediction/Conv_4/kernel/Regularizer/l2_regularizer/L2Loss"
  op: "L2Loss"
  input: "Prediction/Conv_4/weights/read"
  attr {
    key: "T"
    value {
      type: DT_FLOAT
    }
  }
  attr {
    key: "_class"
    value {
      list {
        s: "loc:@Prediction/Conv_4/weights"
      }
    }
  }
  attr {
    key: "_output_shapes"
    value {
      list {
        shape {
        }
      }
    }
  }
}
node {
  name: "CNN_prediction/Prediction/Conv_4/kernel/Regularizer/l2_regularizer"
  op: "Mul"
  input: "CNN_prediction/Prediction/Conv_4/kernel/Regularizer/l2_regularizer/scale"
  input: "CNN_prediction/Prediction/Conv_4/kernel/Regularizer/l2_regularizer/L2Loss"
  attr {
    key: "T"
    value {
      type: DT_FLOAT
    }
  }
  attr {
    key: "_class"
    value {
      list {
        s: "loc:@Prediction/Conv_4/weights"
      }
    }
  }
  attr {
    key: "_output_shapes"
    value {
      list {
        shape {
        }
      }
    }
  }
}
node {
  name: "Prediction/Conv_4/biases/Initializer/zeros"
  op: "Const"
  attr {
    key: "_class"
    value {
      list {
        s: "loc:@Prediction/Conv_4/biases"
      }
    }
  }
  attr {
    key: "_output_shapes"
    value {
      list {
        shape {
          dim {
            size: 64
          }
        }
      }
    }
  }
  attr {
    key: "dtype"
    value {
      type: DT_FLOAT
    }
  }
  attr {
    key: "value"
    value {
      tensor {
        dtype: DT_FLOAT
        tensor_shape {
          dim {
            size: 64
          }
        }
        float_val: 0.0
      }
    }
  }
}
node {
  name: "Prediction/Conv_4/biases"
  op: "VariableV2"
  attr {
    key: "_class"
    value {
      list {
        s: "loc:@Prediction/Conv_4/biases"
      }
    }
  }
  attr {
    key: "_output_shapes"
    value {
      list {
        shape {
          dim {
            size: 64
          }
        }
      }
    }
  }
  attr {
    key: "container"
    value {
      s: ""
    }
  }
  attr {
    key: "dtype"
    value {
      type: DT_FLOAT
    }
  }
  attr {
    key: "shape"
    value {
      shape {
        dim {
          size: 64
        }
      }
    }
  }
  attr {
    key: "shared_name"
    value {
      s: ""
    }
  }
}
node {
  name: "Prediction/Conv_4/biases/Assign"
  op: "Assign"
  input: "Prediction/Conv_4/biases"
  input: "Prediction/Conv_4/biases/Initializer/zeros"
  attr {
    key: "T"
    value {
      type: DT_FLOAT
    }
  }
  attr {
    key: "_class"
    value {
      list {
        s: "loc:@Prediction/Conv_4/biases"
      }
    }
  }
  attr {
    key: "_output_shapes"
    value {
      list {
        shape {
          dim {
            size: 64
          }
        }
      }
    }
  }
  attr {
    key: "use_locking"
    value {
      b: true
    }
  }
  attr {
    key: "validate_shape"
    value {
      b: true
    }
  }
}
node {
  name: "Prediction/Conv_4/biases/read"
  op: "Identity"
  input: "Prediction/Conv_4/biases"
  attr {
    key: "T"
    value {
      type: DT_FLOAT
    }
  }
  attr {
    key: "_class"
    value {
      list {
        s: "loc:@Prediction/Conv_4/biases"
      }
    }
  }
  attr {
    key: "_output_shapes"
    value {
      list {
        shape {
          dim {
            size: 64
          }
        }
      }
    }
  }
}
node {
  name: "CNN_prediction/Prediction/Conv_4/convolution/Shape"
  op: "Const"
  attr {
    key: "_output_shapes"
    value {
      list {
        shape {
          dim {
            size: 4
          }
        }
      }
    }
  }
  attr {
    key: "dtype"
    value {
      type: DT_INT32
    }
  }
  attr {
    key: "value"
    value {
      tensor {
        dtype: DT_INT32
        tensor_shape {
          dim {
            size: 4
          }
        }
        tensor_content: "\003\000\000\000\003\000\000\000 \000\000\000@\000\000\000"
      }
    }
  }
}
node {
  name: "CNN_prediction/Prediction/Conv_4/convolution/dilation_rate"
  op: "Const"
  attr {
    key: "_output_shapes"
    value {
      list {
        shape {
          dim {
            size: 2
          }
        }
      }
    }
  }
  attr {
    key: "dtype"
    value {
      type: DT_INT32
    }
  }
  attr {
    key: "value"
    value {
      tensor {
        dtype: DT_INT32
        tensor_shape {
          dim {
            size: 2
          }
        }
        tensor_content: "\001\000\000\000\001\000\000\000"
      }
    }
  }
}
node {
  name: "CNN_prediction/Prediction/Conv_4/convolution"
  op: "Conv2D"
  input: "CNN_prediction/Prediction/Relu_1"
  input: "Prediction/Conv_4/weights/read"
  attr {
    key: "T"
    value {
      type: DT_FLOAT
    }
  }
  attr {
    key: "_output_shapes"
    value {
      list {
        shape {
          dim {
            size: -1
          }
          dim {
            size: 13
          }
          dim {
            size: 13
          }
          dim {
            size: 64
          }
        }
      }
    }
  }
  attr {
    key: "data_format"
    value {
      s: "NHWC"
    }
  }
  attr {
    key: "padding"
    value {
      s: "SAME"
    }
  }
  attr {
    key: "strides"
    value {
      list {
        i: 1
        i: 2
        i: 2
        i: 1
      }
    }
  }
  attr {
    key: "use_cudnn_on_gpu"
    value {
      b: true
    }
  }
}
node {
  name: "CNN_prediction/Prediction/Conv_4/BiasAdd"
  op: "BiasAdd"
  input: "CNN_prediction/Prediction/Conv_4/convolution"
  input: "Prediction/Conv_4/biases/read"
  attr {
    key: "T"
    value {
      type: DT_FLOAT
    }
  }
  attr {
    key: "_output_shapes"
    value {
      list {
        shape {
          dim {
            size: -1
          }
          dim {
            size: 13
          }
          dim {
            size: 13
          }
          dim {
            size: 64
          }
        }
      }
    }
  }
  attr {
    key: "data_format"
    value {
      s: "NHWC"
    }
  }
}
node {
  name: "CNN_prediction/Prediction/Conv_4/Relu"
  op: "Relu"
  input: "CNN_prediction/Prediction/Conv_4/BiasAdd"
  attr {
    key: "T"
    value {
      type: DT_FLOAT
    }
  }
  attr {
    key: "_output_shapes"
    value {
      list {
        shape {
          dim {
            size: -1
          }
          dim {
            size: 13
          }
          dim {
            size: 13
          }
          dim {
            size: 64
          }
        }
      }
    }
  }
}
node {
  name: "Prediction/Conv_5/weights/Initializer/random_uniform/shape"
  op: "Const"
  attr {
    key: "_class"
    value {
      list {
        s: "loc:@Prediction/Conv_5/weights"
      }
    }
  }
  attr {
    key: "_output_shapes"
    value {
      list {
        shape {
          dim {
            size: 4
          }
        }
      }
    }
  }
  attr {
    key: "dtype"
    value {
      type: DT_INT32
    }
  }
  attr {
    key: "value"
    value {
      tensor {
        dtype: DT_INT32
        tensor_shape {
          dim {
            size: 4
          }
        }
        tensor_content: "\003\000\000\000\003\000\000\000@\000\000\000@\000\000\000"
      }
    }
  }
}
node {
  name: "Prediction/Conv_5/weights/Initializer/random_uniform/min"
  op: "Const"
  attr {
    key: "_class"
    value {
      list {
        s: "loc:@Prediction/Conv_5/weights"
      }
    }
  }
  attr {
    key: "_output_shapes"
    value {
      list {
        shape {
        }
      }
    }
  }
  attr {
    key: "dtype"
    value {
      type: DT_FLOAT
    }
  }
  attr {
    key: "value"
    value {
      tensor {
        dtype: DT_FLOAT
        tensor_shape {
        }
        float_val: -0.07216878235340118
      }
    }
  }
}
node {
  name: "Prediction/Conv_5/weights/Initializer/random_uniform/max"
  op: "Const"
  attr {
    key: "_class"
    value {
      list {
        s: "loc:@Prediction/Conv_5/weights"
      }
    }
  }
  attr {
    key: "_output_shapes"
    value {
      list {
        shape {
        }
      }
    }
  }
  attr {
    key: "dtype"
    value {
      type: DT_FLOAT
    }
  }
  attr {
    key: "value"
    value {
      tensor {
        dtype: DT_FLOAT
        tensor_shape {
        }
        float_val: 0.07216878235340118
      }
    }
  }
}
node {
  name: "Prediction/Conv_5/weights/Initializer/random_uniform/RandomUniform"
  op: "RandomUniform"
  input: "Prediction/Conv_5/weights/Initializer/random_uniform/shape"
  attr {
    key: "T"
    value {
      type: DT_INT32
    }
  }
  attr {
    key: "_class"
    value {
      list {
        s: "loc:@Prediction/Conv_5/weights"
      }
    }
  }
  attr {
    key: "_output_shapes"
    value {
      list {
        shape {
          dim {
            size: 3
          }
          dim {
            size: 3
          }
          dim {
            size: 64
          }
          dim {
            size: 64
          }
        }
      }
    }
  }
  attr {
    key: "dtype"
    value {
      type: DT_FLOAT
    }
  }
  attr {
    key: "seed"
    value {
      i: 8964
    }
  }
  attr {
    key: "seed2"
    value {
      i: 129
    }
  }
}
node {
  name: "Prediction/Conv_5/weights/Initializer/random_uniform/sub"
  op: "Sub"
  input: "Prediction/Conv_5/weights/Initializer/random_uniform/max"
  input: "Prediction/Conv_5/weights/Initializer/random_uniform/min"
  attr {
    key: "T"
    value {
      type: DT_FLOAT
    }
  }
  attr {
    key: "_class"
    value {
      list {
        s: "loc:@Prediction/Conv_5/weights"
      }
    }
  }
  attr {
    key: "_output_shapes"
    value {
      list {
        shape {
        }
      }
    }
  }
}
node {
  name: "Prediction/Conv_5/weights/Initializer/random_uniform/mul"
  op: "Mul"
  input: "Prediction/Conv_5/weights/Initializer/random_uniform/RandomUniform"
  input: "Prediction/Conv_5/weights/Initializer/random_uniform/sub"
  attr {
    key: "T"
    value {
      type: DT_FLOAT
    }
  }
  attr {
    key: "_class"
    value {
      list {
        s: "loc:@Prediction/Conv_5/weights"
      }
    }
  }
  attr {
    key: "_output_shapes"
    value {
      list {
        shape {
          dim {
            size: 3
          }
          dim {
            size: 3
          }
          dim {
            size: 64
          }
          dim {
            size: 64
          }
        }
      }
    }
  }
}
node {
  name: "Prediction/Conv_5/weights/Initializer/random_uniform"
  op: "Add"
  input: "Prediction/Conv_5/weights/Initializer/random_uniform/mul"
  input: "Prediction/Conv_5/weights/Initializer/random_uniform/min"
  attr {
    key: "T"
    value {
      type: DT_FLOAT
    }
  }
  attr {
    key: "_class"
    value {
      list {
        s: "loc:@Prediction/Conv_5/weights"
      }
    }
  }
  attr {
    key: "_output_shapes"
    value {
      list {
        shape {
          dim {
            size: 3
          }
          dim {
            size: 3
          }
          dim {
            size: 64
          }
          dim {
            size: 64
          }
        }
      }
    }
  }
}
node {
  name: "Prediction/Conv_5/weights"
  op: "VariableV2"
  attr {
    key: "_class"
    value {
      list {
        s: "loc:@Prediction/Conv_5/weights"
      }
    }
  }
  attr {
    key: "_output_shapes"
    value {
      list {
        shape {
          dim {
            size: 3
          }
          dim {
            size: 3
          }
          dim {
            size: 64
          }
          dim {
            size: 64
          }
        }
      }
    }
  }
  attr {
    key: "container"
    value {
      s: ""
    }
  }
  attr {
    key: "dtype"
    value {
      type: DT_FLOAT
    }
  }
  attr {
    key: "shape"
    value {
      shape {
        dim {
          size: 3
        }
        dim {
          size: 3
        }
        dim {
          size: 64
        }
        dim {
          size: 64
        }
      }
    }
  }
  attr {
    key: "shared_name"
    value {
      s: ""
    }
  }
}
node {
  name: "Prediction/Conv_5/weights/Assign"
  op: "Assign"
  input: "Prediction/Conv_5/weights"
  input: "Prediction/Conv_5/weights/Initializer/random_uniform"
  attr {
    key: "T"
    value {
      type: DT_FLOAT
    }
  }
  attr {
    key: "_class"
    value {
      list {
        s: "loc:@Prediction/Conv_5/weights"
      }
    }
  }
  attr {
    key: "_output_shapes"
    value {
      list {
        shape {
          dim {
            size: 3
          }
          dim {
            size: 3
          }
          dim {
            size: 64
          }
          dim {
            size: 64
          }
        }
      }
    }
  }
  attr {
    key: "use_locking"
    value {
      b: true
    }
  }
  attr {
    key: "validate_shape"
    value {
      b: true
    }
  }
}
node {
  name: "Prediction/Conv_5/weights/read"
  op: "Identity"
  input: "Prediction/Conv_5/weights"
  attr {
    key: "T"
    value {
      type: DT_FLOAT
    }
  }
  attr {
    key: "_class"
    value {
      list {
        s: "loc:@Prediction/Conv_5/weights"
      }
    }
  }
  attr {
    key: "_output_shapes"
    value {
      list {
        shape {
          dim {
            size: 3
          }
          dim {
            size: 3
          }
          dim {
            size: 64
          }
          dim {
            size: 64
          }
        }
      }
    }
  }
}
node {
  name: "CNN_prediction/Prediction/Conv_5/kernel/Regularizer/l2_regularizer/scale"
  op: "Const"
  attr {
    key: "_class"
    value {
      list {
        s: "loc:@Prediction/Conv_5/weights"
      }
    }
  }
  attr {
    key: "_output_shapes"
    value {
      list {
        shape {
        }
      }
    }
  }
  attr {
    key: "dtype"
    value {
      type: DT_FLOAT
    }
  }
  attr {
    key: "value"
    value {
      tensor {
        dtype: DT_FLOAT
        tensor_shape {
        }
        float_val: 9.999999747378752e-05
      }
    }
  }
}
node {
  name: "CNN_prediction/Prediction/Conv_5/kernel/Regularizer/l2_regularizer/L2Loss"
  op: "L2Loss"
  input: "Prediction/Conv_5/weights/read"
  attr {
    key: "T"
    value {
      type: DT_FLOAT
    }
  }
  attr {
    key: "_class"
    value {
      list {
        s: "loc:@Prediction/Conv_5/weights"
      }
    }
  }
  attr {
    key: "_output_shapes"
    value {
      list {
        shape {
        }
      }
    }
  }
}
node {
  name: "CNN_prediction/Prediction/Conv_5/kernel/Regularizer/l2_regularizer"
  op: "Mul"
  input: "CNN_prediction/Prediction/Conv_5/kernel/Regularizer/l2_regularizer/scale"
  input: "CNN_prediction/Prediction/Conv_5/kernel/Regularizer/l2_regularizer/L2Loss"
  attr {
    key: "T"
    value {
      type: DT_FLOAT
    }
  }
  attr {
    key: "_class"
    value {
      list {
        s: "loc:@Prediction/Conv_5/weights"
      }
    }
  }
  attr {
    key: "_output_shapes"
    value {
      list {
        shape {
        }
      }
    }
  }
}
node {
  name: "Prediction/Conv_5/biases/Initializer/zeros"
  op: "Const"
  attr {
    key: "_class"
    value {
      list {
        s: "loc:@Prediction/Conv_5/biases"
      }
    }
  }
  attr {
    key: "_output_shapes"
    value {
      list {
        shape {
          dim {
            size: 64
          }
        }
      }
    }
  }
  attr {
    key: "dtype"
    value {
      type: DT_FLOAT
    }
  }
  attr {
    key: "value"
    value {
      tensor {
        dtype: DT_FLOAT
        tensor_shape {
          dim {
            size: 64
          }
        }
        float_val: 0.0
      }
    }
  }
}
node {
  name: "Prediction/Conv_5/biases"
  op: "VariableV2"
  attr {
    key: "_class"
    value {
      list {
        s: "loc:@Prediction/Conv_5/biases"
      }
    }
  }
  attr {
    key: "_output_shapes"
    value {
      list {
        shape {
          dim {
            size: 64
          }
        }
      }
    }
  }
  attr {
    key: "container"
    value {
      s: ""
    }
  }
  attr {
    key: "dtype"
    value {
      type: DT_FLOAT
    }
  }
  attr {
    key: "shape"
    value {
      shape {
        dim {
          size: 64
        }
      }
    }
  }
  attr {
    key: "shared_name"
    value {
      s: ""
    }
  }
}
node {
  name: "Prediction/Conv_5/biases/Assign"
  op: "Assign"
  input: "Prediction/Conv_5/biases"
  input: "Prediction/Conv_5/biases/Initializer/zeros"
  attr {
    key: "T"
    value {
      type: DT_FLOAT
    }
  }
  attr {
    key: "_class"
    value {
      list {
        s: "loc:@Prediction/Conv_5/biases"
      }
    }
  }
  attr {
    key: "_output_shapes"
    value {
      list {
        shape {
          dim {
            size: 64
          }
        }
      }
    }
  }
  attr {
    key: "use_locking"
    value {
      b: true
    }
  }
  attr {
    key: "validate_shape"
    value {
      b: true
    }
  }
}
node {
  name: "Prediction/Conv_5/biases/read"
  op: "Identity"
  input: "Prediction/Conv_5/biases"
  attr {
    key: "T"
    value {
      type: DT_FLOAT
    }
  }
  attr {
    key: "_class"
    value {
      list {
        s: "loc:@Prediction/Conv_5/biases"
      }
    }
  }
  attr {
    key: "_output_shapes"
    value {
      list {
        shape {
          dim {
            size: 64
          }
        }
      }
    }
  }
}
node {
  name: "CNN_prediction/Prediction/Conv_5/convolution/Shape"
  op: "Const"
  attr {
    key: "_output_shapes"
    value {
      list {
        shape {
          dim {
            size: 4
          }
        }
      }
    }
  }
  attr {
    key: "dtype"
    value {
      type: DT_INT32
    }
  }
  attr {
    key: "value"
    value {
      tensor {
        dtype: DT_INT32
        tensor_shape {
          dim {
            size: 4
          }
        }
        tensor_content: "\003\000\000\000\003\000\000\000@\000\000\000@\000\000\000"
      }
    }
  }
}
node {
  name: "CNN_prediction/Prediction/Conv_5/convolution/dilation_rate"
  op: "Const"
  attr {
    key: "_output_shapes"
    value {
      list {
        shape {
          dim {
            size: 2
          }
        }
      }
    }
  }
  attr {
    key: "dtype"
    value {
      type: DT_INT32
    }
  }
  attr {
    key: "value"
    value {
      tensor {
        dtype: DT_INT32
        tensor_shape {
          dim {
            size: 2
          }
        }
        tensor_content: "\001\000\000\000\001\000\000\000"
      }
…
    value {
      type: DT_FLOAT
    }
  }
}
node {
  name: "report_uninitialized_variables/IsVariableInitialized_68"
  op: "IsVariableInitialized"
  input: "Prediction/fully_connected/biases/Adam"
  attr {
    key: "_class"
    value {
      list {
        s: "loc:@Prediction/fully_connected/biases"
      }
    }
  }
  attr {
    key: "_output_shapes"
    value {
      list {
        shape {
        }
      }
    }
  }
  attr {
    key: "dtype"
    value {
      type: DT_FLOAT
    }
  }
}
node {
  name: "report_uninitialized_variables/IsVariableInitialized_69"
  op: "IsVariableInitialized"
  input: "Prediction/fully_connected/biases/Adam_1"
  attr {
    key: "_class"
    value {
      list {
        s: "loc:@Prediction/fully_connected/biases"
      }
    }
  }
  attr {
    key: "_output_shapes"
    value {
      list {
        shape {
        }
      }
    }
  }
  attr {
    key: "dtype"
    value {
      type: DT_FLOAT
    }
  }
}
node {
  name: "report_uninitialized_variables/IsVariableInitialized_70"
  op: "IsVariableInitialized"
  input: "Prediction/fully_connected_1/weights/Adam"
  attr {
    key: "_class"
    value {
      list {
        s: "loc:@Prediction/fully_connected_1/weights"
      }
    }
  }
  attr {
    key: "_output_shapes"
    value {
      list {
        shape {
        }
      }
    }
  }
  attr {
    key: "dtype"
    value {
      type: DT_FLOAT
    }
  }
}
node {
  name: "report_uninitialized_variables/IsVariableInitialized_71"
  op: "IsVariableInitialized"
  input: "Prediction/fully_connected_1/weights/Adam_1"
  attr {
    key: "_class"
    value {
      list {
        s: "loc:@Prediction/fully_connected_1/weights"
      }
    }
  }
  attr {
    key: "_output_shapes"
    value {
      list {
        shape {
        }
      }
    }
  }
  attr {
    key: "dtype"
    value {
      type: DT_FLOAT
    }
  }
}
node {
  name: "report_uninitialized_variables/IsVariableInitialized_72"
  op: "IsVariableInitialized"
  input: "Prediction/fully_connected_1/biases/Adam"
  attr {
    key: "_class"
    value {
      list {
        s: "loc:@Prediction/fully_connected_1/biases"
      }
    }
  }
  attr {
    key: "_output_shapes"
    value {
      list {
        shape {
        }
      }
    }
  }
  attr {
    key: "dtype"
    value {
      type: DT_FLOAT
    }
  }
}
node {
  name: "report_uninitialized_variables/IsVariableInitialized_73"
  op: "IsVariableInitialized"
  input: "Prediction/fully_connected_1/biases/Adam_1"
  attr {
    key: "_class"
    value {
      list {
        s: "loc:@Prediction/fully_connected_1/biases"
      }
    }
  }
  attr {
    key: "_output_shapes"
    value {
      list {
        shape {
        }
      }
    }
  }
  attr {
    key: "dtype"
    value {
      type: DT_FLOAT
    }
  }
}
node {
  name: "report_uninitialized_variables/IsVariableInitialized_74"
  op: "IsVariableInitialized"
  input: "train_op/global_step"
  attr {
    key: "_class"
    value {
      list {
        s: "loc:@train_op/global_step"
      }
    }
  }
  attr {
    key: "_output_shapes"
    value {
      list {
        shape {
        }
      }
    }
  }
  attr {
    key: "dtype"
    value {
      type: DT_INT32
    }
  }
}
node {
  name: "report_uninitialized_variables/stack"
  op: "Pack"
  input: "report_uninitialized_variables/IsVariableInitialized"
  input: "report_uninitialized_variables/IsVariableInitialized_1"
  input: "report_uninitialized_variables/IsVariableInitialized_2"
  input: "report_uninitialized_variables/IsVariableInitialized_3"
  input: "report_uninitialized_variables/IsVariableInitialized_4"
  input: "report_uninitialized_variables/IsVariableInitialized_5"
  input: "report_uninitialized_variables/IsVariableInitialized_6"
  input: "report_uninitialized_variables/IsVariableInitialized_7"
  input: "report_uninitialized_variables/IsVariableInitialized_8"
  input: "report_uninitialized_variables/IsVariableInitialized_9"
  input: "report_uninitialized_variables/IsVariableInitialized_10"
  input: "report_uninitialized_variables/IsVariableInitialized_11"
  input: "report_uninitialized_variables/IsVariableInitialized_12"
  input: "report_uninitialized_variables/IsVariableInitialized_13"
  input: "report_uninitialized_variables/IsVariableInitialized_14"
  input: "report_uninitialized_variables/IsVariableInitialized_15"
  input: "report_uninitialized_variables/IsVariableInitialized_16"
  input: "report_uninitialized_variables/IsVariableInitialized_17"
  input: "report_uninitialized_variables/IsVariableInitialized_18"
  input: "report_uninitialized_variables/IsVariableInitialized_19"
  input: "report_uninitialized_variables/IsVariableInitialized_20"
  input: "report_uninitialized_variables/IsVariableInitialized_21"
  input: "report_uninitialized_variables/IsVariableInitialized_22"
  input: "report_uninitialized_variables/IsVariableInitialized_23"
  input: "report_uninitialized_variables/IsVariableInitialized_24"
  input: "report_uninitialized_variables/IsVariableInitialized_25"
  input: "report_uninitialized_variables/IsVariableInitialized_26"
  input: "report_uninitialized_variables/IsVariableInitialized_27"
  input: "report_uninitialized_variables/IsVariableInitialized_28"
  input: "report_uninitialized_variables/IsVariableInitialized_29"
  input: "report_uninitialized_variables/IsVariableInitialized_30"
  input: "report_uninitialized_variables/IsVariableInitialized_31"
  input: "report_uninitialized_variables/IsVariableInitialized_32"
  input: "report_uninitialized_variables/IsVariableInitialized_33"
  input: "report_uninitialized_variables/IsVariableInitialized_34"
  input: "report_uninitialized_variables/IsVariableInitialized_35"
  input: "report_uninitialized_variables/IsVariableInitialized_36"
  input: "report_uninitialized_variables/IsVariableInitialized_37"
  input: "report_uninitialized_variables/IsVariableInitialized_38"
  input: "report_uninitialized_variables/IsVariableInitialized_39"
  input: "report_uninitialized_variables/IsVariableInitialized_40"
  input: "report_uninitialized_variables/IsVariableInitialized_41"
  input: "report_uninitialized_variables/IsVariableInitialized_42"
  input: "report_uninitialized_variables/IsVariableInitialized_43"
  input: "report_uninitialized_variables/IsVariableInitialized_44"
  input: "report_uninitialized_variables/IsVariableInitialized_45"
  input: "report_uninitialized_variables/IsVariableInitialized_46"
  input: "report_uninitialized_variables/IsVariableInitialized_47"
  input: "report_uninitialized_variables/IsVariableInitialized_48"
  input: "report_uninitialized_variables/IsVariableInitialized_49"
  input: "report_uninitialized_variables/IsVariableInitialized_50"
  input: "report_uninitialized_variables/IsVariableInitialized_51"
  input: "report_uninitialized_variables/IsVariableInitialized_52"
  input: "report_uninitialized_variables/IsVariableInitialized_53"
  input: "report_uninitialized_variables/IsVariableInitialized_54"
  input: "report_uninitialized_variables/IsVariableInitialized_55"
  input: "report_uninitialized_variables/IsVariableInitialized_56"
  input: "report_uninitialized_variables/IsVariableInitialized_57"
  input: "report_uninitialized_variables/IsVariableInitialized_58"
  input: "report_uninitialized_variables/IsVariableInitialized_59"
  input: "report_uninitialized_variables/IsVariableInitialized_60"
  input: "report_uninitialized_variables/IsVariableInitialized_61"
  input: "report_uninitialized_variables/IsVariableInitialized_62"
  input: "report_uninitialized_variables/IsVariableInitialized_63"
  input: "report_uninitialized_variables/IsVariableInitialized_64"
  input: "report_uninitialized_variables/IsVariableInitialized_65"
  input: "report_uninitialized_variables/IsVariableInitialized_66"
  input: "report_uninitialized_variables/IsVariableInitialized_67"
  input: "report_uninitialized_variables/IsVariableInitialized_68"
  input: "report_uninitialized_variables/IsVariableInitialized_69"
  input: "report_uninitialized_variables/IsVariableInitialized_70"
  input: "report_uninitialized_variables/IsVariableInitialized_71"
  input: "report_uninitialized_variables/IsVariableInitialized_72"
  input: "report_uninitialized_variables/IsVariableInitialized_73"
  input: "report_uninitialized_variables/IsVariableInitialized_74"
  device: "/device:CPU:0"
  attr {
    key: "N"
    value {
      i: 75
    }
  }
  attr {
    key: "T"
    value {
      type: DT_BOOL
    }
  }
  attr {
    key: "_output_shapes"
    value {
      list {
        shape {
          dim {
            size: 75
          }
        }
      }
    }
  }
  attr {
    key: "axis"
    value {
      i: 0
    }
  }
}
node {
  name: "report_uninitialized_variables/LogicalNot"
  op: "LogicalNot"
  input: "report_uninitialized_variables/stack"
  device: "/device:CPU:0"
  attr {
    key: "_output_shapes"
    value {
      list {
        shape {
          dim {
            size: 75
          }
        }
      }
    }
  }
}
node {
  name: "report_uninitialized_variables/Const"
  op: "Const"
  device: "/device:CPU:0"
  attr {
    key: "_output_shapes"
    value {
      list {
        shape {
          dim {
            size: 75
          }
        }
      }
    }
  }
  attr {
    key: "dtype"
    value {
      type: DT_STRING
    }
  }
  attr {
    key: "value"
    value {
      tensor {
        dtype: DT_STRING
        tensor_shape {
          dim {
            size: 75
          }
        }
        string_val: "Prediction/Conv/weights"
        string_val: "Prediction/Conv/biases"
        string_val: "Prediction/Conv_1/weights"
        string_val: "Prediction/Conv_1/biases"
        string_val: "Prediction/Conv_2/weights"
        string_val: "Prediction/Conv_2/biases"
        string_val: "Prediction/Conv_3/weights"
        string_val: "Prediction/Conv_3/biases"
        string_val: "Prediction/Conv_4/weights"
        string_val: "Prediction/Conv_4/biases"
        string_val: "Prediction/Conv_5/weights"
        string_val: "Prediction/Conv_5/biases"
        string_val: "Prediction/Conv_6/weights"
        string_val: "Prediction/Conv_6/biases"
        string_val: "Prediction/Conv_7/weights"
        string_val: "Prediction/Conv_7/biases"
        string_val: "Prediction/Conv_8/weights"
        string_val: "Prediction/Conv_8/biases"
        string_val: "Prediction/Conv_9/weights"
        string_val: "Prediction/Conv_9/biases"
        string_val: "Prediction/fully_connected/weights"
        string_val: "Prediction/fully_connected/biases"
        string_val: "Prediction/fully_connected_1/weights"
        string_val: "Prediction/fully_connected_1/biases"
        string_val: "train_op/beta1_power"
        string_val: "train_op/beta2_power"
        string_val: "Prediction/Conv/weights/Adam"
        string_val: "Prediction/Conv/weights/Adam_1"
        string_val: "Prediction/Conv/biases/Adam"
        string_val: "Prediction/Conv/biases/Adam_1"
        string_val: "Prediction/Conv_1/weights/Adam"
        string_val: "Prediction/Conv_1/weights/Adam_1"
        string_val: "Prediction/Conv_1/biases/Adam"
        string_val: "Prediction/Conv_1/biases/Adam_1"
        string_val: "Prediction/Conv_2/weights/Adam"
        string_val: "Prediction/Conv_2/weights/Adam_1"
        string_val: "Prediction/Conv_2/biases/Adam"
        string_val: "Prediction/Conv_2/biases/Adam_1"
        string_val: "Prediction/Conv_3/weights/Adam"
        string_val: "Prediction/Conv_3/weights/Adam_1"
        string_val: "Prediction/Conv_3/biases/Adam"
        string_val: "Prediction/Conv_3/biases/Adam_1"
        string_val: "Prediction/Conv_4/weights/Adam"
        string_val: "Prediction/Conv_4/weights/Adam_1"
        string_val: "Prediction/Conv_4/biases/Adam"
        string_val: "Prediction/Conv_4/biases/Adam_1"
        string_val: "Prediction/Conv_5/weights/Adam"
        string_val: "Prediction/Conv_5/weights/Adam_1"
        string_val: "Prediction/Conv_5/biases/Adam"
        string_val: "Prediction/Conv_5/biases/Adam_1"
        string_val: "Prediction/Conv_6/weights/Adam"
        string_val: "Prediction/Conv_6/weights/Adam_1"
        string_val: "Prediction/Conv_6/biases/Adam"
        string_val: "Prediction/Conv_6/biases/Adam_1"
        string_val: "Prediction/Conv_7/weights/Adam"
        string_val: "Prediction/Conv_7/weights/Adam_1"
        string_val: "Prediction/Conv_7/biases/Adam"
        string_val: "Prediction/Conv_7/biases/Adam_1"
        string_val: "Prediction/Conv_8/weights/Adam"
        string_val: "Prediction/Conv_8/weights/Adam_1"
        string_val: "Prediction/Conv_8/biases/Adam"
        string_val: "Prediction/Conv_8/biases/Adam_1"
        string_val: "Prediction/Conv_9/weights/Adam"
        string_val: "Prediction/Conv_9/weights/Adam_1"
        string_val: "Prediction/Conv_9/biases/Adam"
        string_val: "Prediction/Conv_9/biases/Adam_1"
        string_val: "Prediction/fully_connected/weights/Adam"
        string_val: "Prediction/fully_connected/weights/Adam_1"
        string_val: "Prediction/fully_connected/biases/Adam"
        string_val: "Prediction/fully_connected/biases/Adam_1"
        string_val: "Prediction/fully_connected_1/weights/Adam"
        string_val: "Prediction/fully_connected_1/weights/Adam_1"
        string_val: "Prediction/fully_connected_1/biases/Adam"
        string_val: "Prediction/fully_connected_1/biases/Adam_1"
        string_val: "train_op/global_step"
      }
    }
  }
}
node {
  name: "report_uninitialized_variables/boolean_mask/Shape"
  op: "Const"
  device: "/device:CPU:0"
  attr {
    key: "_output_shapes"
    value {
      list {
        shape {
          dim {
            size: 1
          }
        }
      }
    }
  }
  attr {
    key: "dtype"
    value {
      type: DT_INT32
    }
  }
  attr {
    key: "value"
    value {
      tensor {
        dtype: DT_INT32
        tensor_shape {
          dim {
            size: 1
          }
        }
        int_val: 75
      }
    }
  }
}
node {
  name: "report_uninitialized_variables/boolean_mask/strided_slice/stack"
  op: "Const"
  device: "/device:CPU:0"
  attr {
    key: "_output_shapes"
    value {
      list {
        shape {
          dim {
            size: 1
          }
        }
      }
    }
  }
  attr {
    key: "dtype"
    value {
      type: DT_INT32
    }
  }
  attr {
    key: "value"
    value {
      tensor {
        dtype: DT_INT32
        tensor_shape {
          dim {
            size: 1
          }
        }
        int_val: 0
      }
    }
  }
}
node {
  name: "report_uninitialized_variables/boolean_mask/strided_slice/stack_1"
  op: "Const"
  device: "/device:CPU:0"
  attr {
    key: "_output_shapes"
    value {
      list {
        shape {
          dim {
            size: 1
          }
        }
      }
    }
  }
  attr {
    key: "dtype"
    value {
      type: DT_INT32
    }
  }
  attr {
    key: "value"
    value {
      tensor {
        dtype: DT_INT32
        tensor_shape {
          dim {
            size: 1
          }
        }
        int_val: 1
      }
    }
  }
}
node {
  name: "report_uninitialized_variables/boolean_mask/strided_slice/stack_2"
  op: "Const"
  device: "/device:CPU:0"
  attr {
    key: "_output_shapes"
    value {
      list {
        shape {
          dim {
            size: 1
          }
        }
      }
    }
  }
  attr {
    key: "dtype"
    value {
      type: DT_INT32
    }
  }
  attr {
    key: "value"
    value {
      tensor {
        dtype: DT_INT32
        tensor_shape {
          dim {
            size: 1
          }
        }
        int_val: 1
      }
    }
  }
}
node {
  name: "report_uninitialized_variables/boolean_mask/strided_slice"
  op: "StridedSlice"
  input: "report_uninitialized_variables/boolean_mask/Shape"
  input: "report_uninitialized_variables/boolean_mask/strided_slice/stack"
  input: "report_uninitialized_variables/boolean_mask/strided_slice/stack_1"
  input: "report_uninitialized_variables/boolean_mask/strided_slice/stack_2"
  device: "/device:CPU:0"
  attr {
    key: "Index"
    value {
      type: DT_INT32
    }
  }
  attr {
    key: "T"
    value {
      type: DT_INT32
    }
  }
  attr {
    key: "_output_shapes"
    value {
      list {
        shape {
          dim {
            size: 1
          }
        }
      }
    }
  }
  attr {
    key: "begin_mask"
    value {
      i: 1
    }
  }
  attr {
    key: "ellipsis_mask"
    value {
      i: 0
    }
  }
  attr {
    key: "end_mask"
    value {
      i: 0
    }
  }
  attr {
    key: "new_axis_mask"
    value {
      i: 0
    }
  }
  attr {
    key: "shrink_axis_mask"
    value {
      i: 0
    }
  }
}
node {
  name: "report_uninitialized_variables/boolean_mask/Prod/reduction_indices"
  op: "Const"
  device: "/device:CPU:0"
  attr {
    key: "_output_shapes"
    value {
      list {
        shape {
          dim {
            size: 1
          }
        }
      }
    }
  }
  attr {
    key: "dtype"
    value {
      type: DT_INT32
    }
  }
  attr {
    key: "value"
    value {
      tensor {
        dtype: DT_INT32
        tensor_shape {
          dim {
            size: 1
          }
        }
        int_val: 0
      }
    }
  }
}
node {
  name: "report_uninitialized_variables/boolean_mask/Prod"
  op: "Prod"
  input: "report_uninitialized_variables/boolean_mask/strided_slice"
  input: "report_uninitialized_variables/boolean_mask/Prod/reduction_indices"
  device: "/device:CPU:0"
  attr {
    key: "T"
    value {
      type: DT_INT32
    }
  }
  attr {
    key: "Tidx"
    value {
      type: DT_INT32
    }
  }
  attr {
    key: "_output_shapes"
    value {
      list {
        shape {
        }
      }
    }
  }
  attr {
    key: "keep_dims"
    value {
      b: false
    }
  }
}
node {
  name: "report_uninitialized_variables/boolean_mask/Shape_1"
  op: "Const"
  device: "/device:CPU:0"
  attr {
    key: "_output_shapes"
    value {
      list {
        shape {
          dim {
            size: 1
          }
        }
      }
    }
  }
  attr {
    key: "dtype"
    value {
      type: DT_INT32
    }
  }
  attr {
    key: "value"
    value {
      tensor {
        dtype: DT_INT32
        tensor_shape {
          dim {
            size: 1
          }
        }
        int_val: 75
      }
    }
  }
}
node {
  name: "report_uninitialized_variables/boolean_mask/strided_slice_1/stack"
  op: "Const"
  device: "/device:CPU:0"
  attr {
    key: "_output_shapes"
    value {
      list {
        shape {
          dim {
            size: 1
          }
        }
      }
    }
  }
  attr {
    key: "dtype"
    value {
      type: DT_INT32
    }
  }
  attr {
    key: "value"
    value {
      tensor {
        dtype: DT_INT32
        tensor_shape {
          dim {
            size: 1
          }
        }
        int_val: 1
      }
    }
  }
}
node {
  name: "report_uninitialized_variables/boolean_mask/strided_slice_1/stack_1"
  op: "Const"
  device: "/device:CPU:0"
  attr {
    key: "_output_shapes"
    value {
      list {
        shape {
          dim {
            size: 1
          }
        }
      }
    }
  }
  attr {
    key: "dtype"
    value {
      type: DT_INT32
    }
  }
  attr {
    key: "value"
    value {
      tensor {
        dtype: DT_INT32
        tensor_shape {
          dim {
            size: 1
          }
        }
        int_val: 0
      }
    }
  }
}
node {
  name: "report_uninitialized_variables/boolean_mask/strided_slice_1/stack_2"
  op: "Const"
  device: "/device:CPU:0"
  attr {
    key: "_output_shapes"
    value {
      list {
        shape {
          dim {
            size: 1
          }
        }
      }
    }
  }
  attr {
    key: "dtype"
    value {
      type: DT_INT32
    }
  }
  attr {
    key: "value"
    value {
      tensor {
        dtype: DT_INT32
        tensor_shape {
          dim {
            size: 1
          }
        }
        int_val: 1
      }
    }
  }
}
node {
  name: "report_uninitialized_variables/boolean_mask/strided_slice_1"
  op: "StridedSlice"
  input: "report_uninitialized_variables/boolean_mask/Shape_1"
  input: "report_uninitialized_variables/boolean_mask/strided_slice_1/stack"
  input: "report_uninitialized_variables/boolean_mask/strided_slice_1/stack_1"
  input: "report_uninitialized_variables/boolean_mask/strided_slice_1/stack_2"
  device: "/device:CPU:0"
  attr {
    key: "Index"
    value {
      type: DT_INT32
    }
  }
  attr {
    key: "T"
    value {
      type: DT_INT32
    }
  }
  attr {
    key: "_output_shapes"
    value {
      list {
        shape {
          dim {
          }
        }
      }
    }
  }
  attr {
    key: "begin_mask"
    value {
      i: 0
    }
  }
  attr {
    key: "ellipsis_mask"
    value {
      i: 0
    }
  }
  attr {
    key: "end_mask"
    value {
      i: 1
    }
  }
  attr {
    key: "new_axis_mask"
    value {
      i: 0
    }
  }
  attr {
    key: "shrink_axis_mask"
    value {
      i: 0
    }
  }
}
node {
  name: "report_uninitialized_variables/boolean_mask/concat/values_0"
  op: "Pack"
  input: "report_uninitialized_variables/boolean_mask/Prod"
  device: "/device:CPU:0"
  attr {
    key: "N"
    value {
      i: 1
    }
  }
  attr {
    key: "T"
    value {
      type: DT_INT32
    }
  }
  attr {
    key: "_output_shapes"
    value {
      list {
        shape {
          dim {
            size: 1
          }
        }
      }
    }
  }
  attr {
    key: "axis"
    value {
      i: 0
    }
  }
}
node {
  name: "report_uninitialized_variables/boolean_mask/concat/axis"
  op: "Const"
  device: "/device:CPU:0"
  attr {
    key: "_output_shapes"
    value {
      list {
        shape {
        }
      }
    }
  }
  attr {
    key: "dtype"
    value {
      type: DT_INT32
    }
  }
  attr {
    key: "value"
    value {
      tensor {
        dtype: DT_INT32
        tensor_shape {
        }
        int_val: 0
      }
    }
  }
}
node {
  name: "report_uninitialized_variables/boolean_mask/concat"
  op: "ConcatV2"
  input: "report_uninitialized_variables/boolean_mask/concat/values_0"
  input: "report_uninitialized_variables/boolean_mask/strided_slice_1"
  input: "report_uninitialized_variables/boolean_mask/concat/axis"
  device: "/device:CPU:0"
  attr {
    key: "N"
    value {
      i: 2
    }
  }
  attr {
    key: "T"
    value {
      type: DT_INT32
    }
  }
  attr {
    key: "Tidx"
    value {
      type: DT_INT32
    }
  }
  attr {
    key: "_output_shapes"
    value {
      list {
        shape {
          dim {
            size: 1
          }
        }
      }
    }
  }
}
node {
  name: "report_uninitialized_variables/boolean_mask/Reshape"
  op: "Reshape"
  input: "report_uninitialized_variables/Const"
  input: "report_uninitialized_variables/boolean_mask/concat"
  device: "/device:CPU:0"
  attr {
    key: "T"
    value {
      type: DT_STRING
    }
  }
  attr {
    key: "Tshape"
    value {
      type: DT_INT32
    }
  }
  attr {
    key: "_output_shapes"
    value {
      list {
        shape {
          dim {
            size: 75
          }
        }
      }
    }
  }
}
node {
  name: "report_uninitialized_variables/boolean_mask/Reshape_1/shape"
  op: "Const"
  device: "/device:CPU:0"
  attr {
    key: "_output_shapes"
    value {
      list {
        shape {
          dim {
            size: 1
          }
        }
      }
    }
  }
  attr {
    key: "dtype"
    value {
      type: DT_INT32
    }
  }
  attr {
    key: "value"
    value {
      tensor {
        dtype: DT_INT32
        tensor_shape {
          dim {
            size: 1
          }
        }
        int_val: -1
      }
    }
  }
}
node {
  name: "report_uninitialized_variables/boolean_mask/Reshape_1"
  op: "Reshape"
  input: "report_uninitialized_variables/LogicalNot"
  input: "report_uninitialized_variables/boolean_mask/Reshape_1/shape"
  device: "/device:CPU:0"
  attr {
    key: "T"
    value {
      type: DT_BOOL
    }
  }
  attr {
    key: "Tshape"
    value {
      type: DT_INT32
    }
  }
  attr {
    key: "_output_shapes"
    value {
      list {
        shape {
          dim {
            size: 75
          }
        }
      }
    }
  }
}
node {
  name: "report_uninitialized_variables/boolean_mask/Where"
  op: "Where"
  input: "report_uninitialized_variables/boolean_mask/Reshape_1"
  device: "/device:CPU:0"
  attr {
    key: "_output_shapes"
    value {
      list {
        shape {
          dim {
            size: -1
          }
          dim {
            size: 1
          }
        }
      }
    }
  }
}
node {
  name: "report_uninitialized_variables/boolean_mask/Squeeze"
  op: "Squeeze"
  input: "report_uninitialized_variables/boolean_mask/Where"
  device: "/device:CPU:0"
  attr {
    key: "T"
    value {
      type: DT_INT64
    }
  }
  attr {
    key: "_output_shapes"
    value {
      list {
        shape {
          dim {
            size: -1
          }
        }
      }
    }
  }
  attr {
    key: "squeeze_dims"
    value {
      list {
        i: 1
      }
    }
  }
}
node {
  name: "report_uninitialized_variables/boolean_mask/Gather"
  op: "Gather"
  input: "report_uninitialized_variables/boolean_mask/Reshape"
  input: "report_uninitialized_variables/boolean_mask/Squeeze"
  device: "/device:CPU:0"
  attr {
    key: "Tindices"
    value {
      type: DT_INT64
    }
  }
  attr {
    key: "Tparams"
    value {
      type: DT_STRING
    }
  }
  attr {
    key: "_output_shapes"
    value {
      list {
        shape {
          dim {
            size: -1
          }
        }
      }
    }
  }
  attr {
    key: "validate_indices"
    value {
      b: true
    }
  }
}
node {
  name: "init"
  op: "NoOp"
  input: "^Prediction/Conv/weights/Assign"
  input: "^Prediction/Conv/biases/Assign"
  input: "^Prediction/Conv_1/weights/Assign"
  input: "^Prediction/Conv_1/biases/Assign"
  input: "^Prediction/Conv_2/weights/Assign"
  input: "^Prediction/Conv_2/biases/Assign"
  input: "^Prediction/Conv_3/weights/Assign"
  input: "^Prediction/Conv_3/biases/Assign"
  input: "^Prediction/Conv_4/weights/Assign"
  input: "^Prediction/Conv_4/biases/Assign"
  input: "^Prediction/Conv_5/weights/Assign"
  input: "^Prediction/Conv_5/biases/Assign"
  input: "^Prediction/Conv_6/weights/Assign"
  input: "^Prediction/Conv_6/biases/Assign"
  input: "^Prediction/Conv_7/weights/Assign"
  input: "^Prediction/Conv_7/biases/Assign"
  input: "^Prediction/Conv_8/weights/Assign"
  input: "^Prediction/Conv_8/biases/Assign"
  input: "^Prediction/Conv_9/weights/Assign"
  input: "^Prediction/Conv_9/biases/Assign"
  input: "^Prediction/fully_connected/weights/Assign"
  input: "^Prediction/fully_connected/biases/Assign"
  input: "^Prediction/fully_connected_1/weights/Assign"
  input: "^Prediction/fully_connected_1/biases/Assign"
  input: "^train_op/beta1_power/Assign"
  input: "^train_op/beta2_power/Assign"
  input: "^Prediction/Conv/weights/Adam/Assign"
  input: "^Prediction/Conv/weights/Adam_1/Assign"
  input: "^Prediction/Conv/biases/Adam/Assign"
  input: "^Prediction/Conv/biases/Adam_1/Assign"
  input: "^Prediction/Conv_1/weights/Adam/Assign"
  input: "^Prediction/Conv_1/weights/Adam_1/Assign"
  input: "^Prediction/Conv_1/biases/Adam/Assign"
  input: "^Prediction/Conv_1/biases/Adam_1/Assign"
  input: "^Prediction/Conv_2/weights/Adam/Assign"
  input: "^Prediction/Conv_2/weights/Adam_1/Assign"
  input: "^Prediction/Conv_2/biases/Adam/Assign"
  input: "^Prediction/Conv_2/biases/Adam_1/Assign"
  input: "^Prediction/Conv_3/weights/Adam/Assign"
  input: "^Prediction/Conv_3/weights/Adam_1/Assign"
  input: "^Prediction/Conv_3/biases/Adam/Assign"
  input: "^Prediction/Conv_3/biases/Adam_1/Assign"
  input: "^Prediction/Conv_4/weights/Adam/Assign"
  input: "^Prediction/Conv_4/weights/Adam_1/Assign"
  input: "^Prediction/Conv_4/biases/Adam/Assign"
  input: "^Prediction/Conv_4/biases/Adam_1/Assign"
  input: "^Prediction/Conv_5/weights/Adam/Assign"
  input: "^Prediction/Conv_5/weights/Adam_1/Assign"
  input: "^Prediction/Conv_5/biases/Adam/Assign"
  input: "^Prediction/Conv_5/biases/Adam_1/Assign"
  input: "^Prediction/Conv_6/weights/Adam/Assign"
  input: "^Prediction/Conv_6/weights/Adam_1/Assign"
  input: "^Prediction/Conv_6/biases/Adam/Assign"
  input: "^Prediction/Conv_6/biases/Adam_1/Assign"
  input: "^Prediction/Conv_7/weights/Adam/Assign"
  input: "^Prediction/Conv_7/weights/Adam_1/Assign"
  input: "^Prediction/Conv_7/biases/Adam/Assign"
  input: "^Prediction/Conv_7/biases/Adam_1/Assign"
  input: "^Prediction/Conv_8/weights/Adam/Assign"
  input: "^Prediction/Conv_8/weights/Adam_1/Assign"
  input: "^Prediction/Conv_8/biases/Adam/Assign"
  input: "^Prediction/Conv_8/biases/Adam_1/Assign"
  input: "^Prediction/Conv_9/weights/Adam/Assign"
  input: "^Prediction/Conv_9/weights/Adam_1/Assign"
  input: "^Prediction/Conv_9/biases/Adam/Assign"
  input: "^Prediction/Conv_9/biases/Adam_1/Assign"
  input: "^Prediction/fully_connected/weights/Adam/Assign"
  input: "^Prediction/fully_connected/weights/Adam_1/Assign"
  input: "^Prediction/fully_connected/biases/Adam/Assign"
  input: "^Prediction/fully_connected/biases/Adam_1/Assign"
  input: "^Prediction/fully_connected_1/weights/Adam/Assign"
  input: "^Prediction/fully_connected_1/weights/Adam_1/Assign"
  input: "^Prediction/fully_connected_1/biases/Adam/Assign"
  input: "^Prediction/fully_connected_1/biases/Adam_1/Assign"
  input: "^train_op/global_step/Assign"
}
node {
  name: "init_1"
  op: "NoOp"
}
node {
  name: "init_all_tables"
  op: "NoOp"
}
node {
  name: "group_deps"
  op: "NoOp"
  input: "^init_1"
  input: "^init_all_tables"
}
node {
  name: "Merge/MergeSummary"
  op: "MergeSummary"
  input: "train_loss"
  input: "logits_distribution"
  input: "ground_truth_distribution"
  input: "Prediction/Conv/weights/values"
  input: "Prediction/Conv/biases/values"
  input: "Prediction/Conv_1/weights/values"
  input: "Prediction/Conv_1/biases/values"
  input: "Prediction/Conv_2/weights/values"
  input: "Prediction/Conv_2/biases/values"
  input: "Prediction/Conv_3/weights/values"
  input: "Prediction/Conv_3/biases/values"
  input: "Prediction/Conv_4/weights/values"
  input: "Prediction/Conv_4/biases/values"
  input: "Prediction/Conv_5/weights/values"
  input: "Prediction/Conv_5/biases/values"
  input: "Prediction/Conv_6/weights/values"
  input: "Prediction/Conv_6/biases/values"
  input: "Prediction/Conv_7/weights/values"
  input: "Prediction/Conv_7/biases/values"
  input: "Prediction/Conv_8/weights/values"
  input: "Prediction/Conv_8/biases/values"
  input: "Prediction/Conv_9/weights/values"
  input: "Prediction/Conv_9/biases/values"
  input: "Prediction/fully_connected/weights/values"
  input: "Prediction/fully_connected/biases/values"
  input: "Prediction/fully_connected_1/weights/values"
  input: "Prediction/fully_connected_1/biases/values"
  input: "Prediction/Conv/weights/gradients"
  input: "Prediction/Conv/biases/gradients"
  input: "Prediction/Conv_1/weights/gradients"
  input: "Prediction/Conv_1/biases/gradients"
  input: "Prediction/Conv_2/weights/gradients"
  input: "Prediction/Conv_2/biases/gradients"
  input: "Prediction/Conv_3/weights/gradients"
  input: "Prediction/Conv_3/biases/gradients"
  input: "Prediction/Conv_4/weights/gradients"
  input: "Prediction/Conv_4/biases/gradients"
  input: "Prediction/Conv_5/weights/gradients"
  input: "Prediction/Conv_5/biases/gradients"
  input: "Prediction/Conv_6/weights/gradients"
  input: "Prediction/Conv_6/biases/gradients"
  input: "Prediction/Conv_7/weights/gradients"
  input: "Prediction/Conv_7/biases/gradients"
  input: "Prediction/Conv_8/weights/gradients"
  input: "Prediction/Conv_8/biases/gradients"
  input: "Prediction/Conv_9/weights/gradients"
  input: "Prediction/Conv_9/biases/gradients"
  input: "Prediction/fully_connected/weights/gradients"
  input: "Prediction/fully_connected/biases/gradients"
  input: "Prediction/fully_connected_1/weights/gradients"
  input: "Prediction/fully_connected_1/biases/gradients"
  attr {
    key: "N"
    value {
      i: 51
    }
  }
  attr {
    key: "_output_shapes"
    value {
      list {
        shape {
        }
      }
    }
  }
}
library {
  function {
    signature {
      name: "tf_map_func_21cab2e2"
      input_arg {
        name: "arg0"
        type: DT_STRING
      }
      input_arg {
        name: "arg1"
        type: DT_FLOAT
      }
      output_arg {
        name: "stack_2"
        type: DT_FLOAT
      }
      output_arg {
        name: "arg1"
        type: DT_FLOAT
      }
      description: "A wrapper for Defun that facilitates shape inference."
    }
    node_def {
      name: "ReadFile"
      op: "ReadFile"
      input: "arg0"
    }
    node_def {
      name: "DecodePng"
      op: "DecodePng"
      input: "ReadFile:contents:0"
      attr {
        key: "channels"
        value {
          i: 3
        }
      }
      attr {
        key: "dtype"
        value {
          type: DT_UINT8
        }
      }
    }
    node_def {
      name: "ExpandDims/dim"
      op: "Const"
      attr {
        key: "dtype"
        value {
          type: DT_INT32
        }
      }
      attr {
        key: "value"
        value {
          tensor {
            dtype: DT_INT32
            tensor_shape {
            }
            int_val: 0
          }
        }
      }
    }
    node_def {
      name: "ExpandDims"
      op: "ExpandDims"
      input: "DecodePng:image:0"
      input: "ExpandDims/dim:output:0"
      attr {
        key: "T"
        value {
          type: DT_UINT8
        }
      }
      attr {
        key: "Tdim"
        value {
          type: DT_INT32
        }
      }
    }
    node_def {
      name: "size"
      op: "Const"
      attr {
        key: "dtype"
        value {
          type: DT_INT32
        }
      }
      attr {
        key: "value"
        value {
          tensor {
            dtype: DT_INT32
            tensor_shape {
              dim {
                size: 2
              }
            }
            tensor_content: "\004\001\000\000Z\001\000\000"
          }
        }
      }
    }
    node_def {
      name: "ResizeBilinear"
      op: "ResizeBilinear"
      input: "ExpandDims:output:0"
      input: "size:output:0"
      attr {
        key: "T"
        value {
          type: DT_UINT8
        }
      }
      attr {
        key: "align_corners"
        value {
          b: false
        }
      }
    }
    node_def {
      name: "Squeeze"
      op: "Squeeze"
      input: "ResizeBilinear:resized_images:0"
      attr {
        key: "T"
        value {
          type: DT_FLOAT
        }
      }
      attr {
        key: "squeeze_dims"
        value {
          list {
            i: 0
          }
        }
      }
    }
    node_def {
      name: "Shape"
      op: "Const"
      attr {
        key: "dtype"
        value {
          type: DT_INT32
        }
      }
      attr {
        key: "value"
        value {
          tensor {
            dtype: DT_INT32
            tensor_shape {
              dim {
                size: 3
              }
            }
            tensor_content: "\004\001\000\000Z\001\000\000\003\000\000\000"
          }
        }
      }
    }
    node_def {
      name: "strided_slice/stack"
      op: "Const"
      attr {
        key: "dtype"
        value {
          type: DT_INT32
        }
      }
      attr {
        key: "value"
        value {
          tensor {
            dtype: DT_INT32
            tensor_shape {
              dim {
                size: 1
              }
            }
            int_val: 1
          }
        }
      }
    }
    node_def {
      name: "strided_slice/stack_1"
      op: "Const"
      attr {
        key: "dtype"
        value {
          type: DT_INT32
        }
      }
      attr {
        key: "value"
        value {
          tensor {
            dtype: DT_INT32
            tensor_shape {
              dim {
                size: 1
              }
            }
            int_val: 2
          }
        }
      }
    }
    node_def {
      name: "strided_slice/stack_2"
      op: "Const"
      attr {
        key: "dtype"
        value {
          type: DT_INT32
        }
      }
      attr {
        key: "value"
        value {
          tensor {
            dtype: DT_INT32
            tensor_shape {
              dim {
                size: 1
              }
            }
            int_val: 1
          }
        }
      }
    }
    node_def {
      name: "strided_slice"
      op: "StridedSlice"
      input: "Shape:output:0"
      input: "strided_slice/stack:output:0"
      input: "strided_slice/stack_1:output:0"
      input: "strided_slice/stack_2:output:0"
      attr {
        key: "Index"
        value {
          type: DT_INT32
        }
      }
      attr {
        key: "T"
        value {
          type: DT_INT32
        }
      }
      attr {
        key: "begin_mask"
        value {
          i: 0
        }
      }
      attr {
        key: "ellipsis_mask"
        value {
          i: 0
        }
      }
      attr {
        key: "end_mask"
        value {
          i: 0
        }
      }
      attr {
        key: "new_axis_mask"
        value {
          i: 0
        }
      }
      attr {
        key: "shrink_axis_mask"
        value {
          i: 1
        }
      }
    }
    node_def {
      name: "truediv/y"
      op: "Const"
      attr {
        key: "dtype"
        value {
          type: DT_INT32
        }
      }
      attr {
        key: "value"
        value {
          tensor {
            dtype: DT_INT32
            tensor_shape {
            }
            int_val: 2
          }
        }
      }
    }
    node_def {
      name: "truediv/Cast"
      op: "Cast"
      input: "strided_slice:output:0"
      attr {
        key: "DstT"
        value {
          type: DT_DOUBLE
        }
      }
      attr {
        key: "SrcT"
        value {
          type: DT_INT32
        }
      }
    }
    node_def {
      name: "truediv/Cast_1"
      op: "Cast"
      input: "truediv/y:output:0"
      attr {
        key: "DstT"
        value {
          type: DT_DOUBLE
        }
      }
      attr {
        key: "SrcT"
        value {
          type: DT_INT32
        }
      }
    }
    node_def {
      name: "truediv"
      op: "RealDiv"
      input: "truediv/Cast:y:0"
      input: "truediv/Cast_1:y:0"
      attr {
        key: "T"
        value {
          type: DT_DOUBLE
        }
      }
    }
    node_def {
      name: "sub/y"
      op: "Const"
      attr {
        key: "dtype"
        value {
          type: DT_DOUBLE
        }
      }
      attr {
        key: "value"
        value {
          tensor {
            dtype: DT_DOUBLE
            tensor_shape {
            }
            double_val: 100.0
          }
        }
      }
    }
    node_def {
      name: "sub"
      op: "Sub"
      input: "truediv:z:0"
      input: "sub/y:output:0"
      attr {
        key: "T"
        value {
          type: DT_DOUBLE
        }
      }
    }
    node_def {
      name: "Cast_1"
      op: "Cast"
      input: "sub:z:0"
      attr {
        key: "DstT"
        value {
          type: DT_INT32
        }
      }
      attr {
        key: "SrcT"
        value {
          type: DT_DOUBLE
        }
      }
    }
    node_def {
      name: "ExpandDims_1/dim"
      op: "Const"
      attr {
        key: "dtype"
        value {
          type: DT_INT32
        }
      }
      attr {
        key: "value"
        value {
          tensor {
            dtype: DT_INT32
            tensor_shape {
            }
            int_val: 0
          }
        }
      }
    }
    node_def {
      name: "ExpandDims_1"
      op: "ExpandDims"
      input: "Squeeze:output:0"
      input: "ExpandDims_1/dim:output:0"
      attr {
        key: "T"
        value {
          type: DT_FLOAT
        }
      }
      attr {
        key: "Tdim"
        value {
          type: DT_INT32
        }
      }
    }
    node_def {
      name: "GreaterEqual/y"
      op: "Const"
      attr {
        key: "dtype"
        value {
          type: DT_INT32
        }
      }
      attr {
        key: "value"
        value {
          tensor {
            dtype: DT_INT32
            tensor_shape {
            }
            int_val: 0
          }
        }
      }
    }
    node_def {
      name: "GreaterEqual"
      op: "GreaterEqual"
      input: "Cast_1:y:0"
      input: "GreaterEqual/y:output:0"
      attr {
        key: "T"
        value {
          type: DT_INT32
        }
      }
    }
    node_def {
      name: "Assert/Const"
      op: "Const"
      attr {
        key: "dtype"
        value {
          type: DT_STRING
        }
      }
      attr {
        key: "value"
        value {
          tensor {
            dtype: DT_STRING
            tensor_shape {
            }
            string_val: "offset_width must be >= 0."
          }
        }
      }
    }
    node_def {
      name: "Assert/Assert/data_0"
      op: "Const"
      attr {
        key: "dtype"
        value {
          type: DT_STRING
        }
      }
      attr {
        key: "value"
        value {
          tensor {
            dtype: DT_STRING
            tensor_shape {
            }
            string_val: "offset_width must be >= 0."
          }
        }
      }
    }
    node_def {
      name: "Assert/Assert"
      op: "Assert"
      input: "GreaterEqual:z:0"
      input: "Assert/Assert/data_0:output:0"
      attr {
        key: "T"
        value {
          list {
            type: DT_STRING
          }
        }
      }
      attr {
        key: "summarize"
        value {
          i: 3
        }
      }
    }
    node_def {
      name: "add/x"
      op: "Const"
      attr {
        key: "dtype"
        value {
          type: DT_INT32
        }
      }
      attr {
        key: "value"
        value {
          tensor {
            dtype: DT_INT32
            tensor_shape {
            }
            int_val: 200
          }
        }
      }
    }
    node_def {
      name: "add"
      op: "Add"
      input: "add/x:output:0"
      input: "Cast_1:y:0"
      attr {
        key: "T"
        value {
          type: DT_INT32
        }
      }
    }
    node_def {
      name: "LessEqual/y"
      op: "Const"
      attr {
        key: "dtype"
        value {
          type: DT_INT32
        }
      }
      attr {
        key: "value"
        value {
          tensor {
            dtype: DT_INT32
            tensor_shape {
            }
            int_val: 346
          }
        }
      }
    }
    node_def {
      name: "LessEqual"
      op: "LessEqual"
      input: "add:z:0"
      input: "LessEqual/y:output:0"
      attr {
        key: "T"
        value {
          type: DT_INT32
        }
      }
    }
    node_def {
      name: "Assert_1/Const"
      op: "Const"
      attr {
        key: "dtype"
        value {
          type: DT_STRING
        }
      }
      attr {
        key: "value"
        value {
          tensor {
            dtype: DT_STRING
            tensor_shape {
            }
            string_val: "width must be >= target + offset."
          }
        }
      }
    }
    node_def {
      name: "Assert_1/Assert/data_0"
      op: "Const"
      attr {
        key: "dtype"
        value {
          type: DT_STRING
        }
      }
      attr {
        key: "value"
        value {
          tensor {
            dtype: DT_STRING
            tensor_shape {
            }
            string_val: "width must be >= target + offset."
          }
        }
      }
    }
    node_def {
      name: "Assert_1/Assert"
      op: "Assert"
      input: "LessEqual:z:0"
      input: "Assert_1/Assert/data_0:output:0"
      attr {
        key: "T"
        value {
          list {
            type: DT_STRING
          }
        }
      }
      attr {
        key: "summarize"
        value {
          i: 3
        }
      }
    }
    node_def {
      name: "control_dependency"
      op: "Identity"
      input: "ExpandDims_1:output:0"
      input: "^Assert/Assert"
      input: "^Assert_1/Assert"
      attr {
        key: "T"
        value {
          type: DT_FLOAT
        }
      }
      attr {
        key: "_class"
        value {
          list {
            s: "loc:@ExpandDims_1"
          }
        }
      }
    }
    node_def {
      name: "stack/0"
      op: "Const"
      attr {
        key: "dtype"
        value {
          type: DT_INT32
        }
      }
      attr {
        key: "value"
        value {
          tensor {
            dtype: DT_INT32
            tensor_shape {
            }
            int_val: 0
          }
        }
      }
    }
    node_def {
      name: "stack/1"
      op: "Const"
      attr {
        key: "dtype"
        value {
          type: DT_INT32
        }
      }
      attr {
        key: "value"
        value {
          tensor {
            dtype: DT_INT32
            tensor_shape {
            }
            int_val: 0
          }
        }
      }
    }
    node_def {
      name: "stack/3"
      op: "Const"
      attr {
        key: "dtype"
        value {
          type: DT_INT32
        }
      }
      attr {
        key: "value"
        value {
          tensor {
            dtype: DT_INT32
            tensor_shape {
            }
            int_val: 0
          }
        }
      }
    }
    node_def {
      name: "stack"
      op: "Pack"
      input: "stack/0:output:0"
      input: "stack/1:output:0"
      input: "Cast_1:y:0"
      input: "stack/3:output:0"
      attr {
        key: "N"
        value {
          i: 4
        }
      }
      attr {
        key: "T"
        value {
          type: DT_INT32
        }
      }
      attr {
        key: "axis"
        value {
          i: 0
        }
      }
    }
    node_def {
      name: "stack_1"
      op: "Const"
      attr {
        key: "dtype"
        value {
          type: DT_INT32
        }
      }
      attr {
        key: "value"
        value {
          tensor {
            dtype: DT_INT32
            tensor_shape {
              dim {
                size: 4
              }
            }
            tensor_content: "\377\377\377\377\310\000\000\000\310\000\000\000\377\377\377\377"
          }
        }
      }
    }
    node_def {
      name: "Slice"
      op: "Slice"
      input: "control_dependency:output:0"
      input: "stack:output:0"
      input: "stack_1:output:0"
      attr {
        key: "Index"
        value {
          type: DT_INT32
        }
      }
      attr {
        key: "T"
        value {
          type: DT_FLOAT
        }
      }
    }
    node_def {
      name: "Squeeze_1"
      op: "Squeeze"
      input: "Slice:output:0"
      attr {
        key: "T"
        value {
          type: DT_FLOAT
        }
      }
      attr {
        key: "squeeze_dims"
        value {
          list {
            i: 0
          }
        }
      }
    }
    node_def {
      name: "Const"
      op: "Const"
      attr {
        key: "dtype"
        value {
          type: DT_INT32
        }
      }
      attr {
        key: "value"
        value {
          tensor {
            dtype: DT_INT32
            tensor_shape {
            }
            int_val: 3
          }
        }
      }
    }
    node_def {
      name: "split/split_dim"
      op: "Const"
      attr {
        key: "dtype"
        value {
          type: DT_INT32
        }
      }
      attr {
        key: "value"
        value {
          tensor {
            dtype: DT_INT32
            tensor_shape {
            }
            int_val: -1
          }
        }
      }
    }
    node_def {
      name: "split"
      op: "Split"
      input: "split/split_dim:output:0"
      input: "Squeeze_1:output:0"
      attr {
        key: "T"
        value {
          type: DT_FLOAT
        }
      }
      attr {
        key: "num_split"
        value {
          i: 3
        }
      }
    }
    node_def {
      name: "truediv_1/y"
      op: "Const"
      attr {
        key: "dtype"
        value {
          type: DT_FLOAT
        }
      }
      attr {
        key: "value"
        value {
          tensor {
            dtype: DT_FLOAT
            tensor_shape {
            }
            float_val: 17.0
          }
        }
      }
    }
    node_def {
      name: "truediv_1"
      op: "RealDiv"
      input: "split:output:0"
      input: "truediv_1/y:output:0"
      attr {
        key: "T"
        value {
          type: DT_FLOAT
        }
      }
    }
    node_def {
      name: "Squeeze_2"
      op: "Squeeze"
      input: "truediv_1:z:0"
      attr {
        key: "T"
        value {
          type: DT_FLOAT
        }
      }
      attr {
        key: "squeeze_dims"
        value {
          list {
            i: -1
          }
        }
      }
    }
    node_def {
      name: "truediv_2/y"
      op: "Const"
      attr {
        key: "dtype"
        value {
          type: DT_FLOAT
        }
      }
      attr {
        key: "value"
        value {
          tensor {
            dtype: DT_FLOAT
            tensor_shape {
            }
            float_val: 17.0
          }
        }
      }
    }
    node_def {
      name: "truediv_2"
      op: "RealDiv"
      input: "split:output:2"
      input: "truediv_2/y:output:0"
      attr {
        key: "T"
        value {
          type: DT_FLOAT
        }
      }
    }
    node_def {
      name: "Squeeze_3"
      op: "Squeeze"
      input: "truediv_2:z:0"
      attr {
        key: "T"
        value {
          type: DT_FLOAT
        }
      }
      attr {
        key: "squeeze_dims"
        value {
          list {
            i: -1
          }
        }
      }
    }
    node_def {
      name: "stack_2"
      op: "Pack"
      input: "Squeeze_2:output:0"
      input: "Squeeze_3:output:0"
      attr {
        key: "N"
        value {
          i: 2
        }
      }
      attr {
        key: "T"
        value {
          type: DT_FLOAT
        }
      }
      attr {
        key: "axis"
        value {
          i: -1
        }
      }
    }
    ret {
      key: "arg1"
      value: "arg1"
    }
    ret {
      key: "stack_2"
      value: "stack_2:output:0"
    }
  }
}
versions {
  producer: 24
  min_consumer: 12
}
